model/model2.pkl (torch_old, 227546 bytes, 20 tensors)

weight f4 [256, 32]
0	0x3cecc649	0.028903143
1	0x3dd9e6f6	0.106397554
2	0x3dd7fd24	0.105463296
3	0x3d3639cf	0.044488724
4	0x3e3a0875	0.18167289
5	0xbe12b89d	-0.14328237
6	0xbe238193	-0.15967397
7	0x3d1bad9c	0.038007364
8	0xbe41e958	-0.1893667
9	0x3daa7af4	0.08324233
10	0x3e13b86f	0.14425825
11	0xbda433f0	-0.08017719
12	0xbe462621	-0.19350483
13	0x3d872427	0.065986924
14	0xba870c90	-0.0010303427
15	0x3b32fb33	0.002731037
16	0xbe255d47	-0.16148864
17	0xbd2c9cbc	-0.04214166
18	0xbe10269e	-0.14077231
19	0x3dd509a8	0.104022324
20	0xbdac1e7e	-0.084042534
21	0xbd2476d6	-0.040152393
22	0x3d231829	0.039817963
23	0x3dfc8647	0.12330299
24	0xbe15ab18	-0.14616048
25	0xbd5c143b	-0.05373023
26	0x3de3b8b3	0.11119213
27	0x3d1dd07d	0.038528908
28	0x3da16d01	0.07882119
29	0x3e0cf143	0.13763909
30	0x3de67f30	0.11254728
31	0x3c348677	0.011018387
32	0x3cd9817f	0.026551006
33	0x3e1f55f9	0.1556014
34	0x3c34ed58	0.011042915
35	0x3d300e95	0.042982657
36	0x3e2ac254	0.16675693
37	0xbd9b760a	-0.075908735
38	0xbe2c06da	-0.16799489
39	0x3d80d2fc	0.06290242
40	0xbdbe1a28	-0.09282333
41	0x3d03f492	0.032215662
42	0x3c4d4cd9	0.012530529
43	0x3dba8ad5	0.09108511
44	0xbcc6346f	-0.024194924
45	0x3dc3e89c	0.09565851
46	0xbd87547b	-0.0660791
47	0xbd85616e	-0.06512724
48	0x3dfb89c4	0.12282136
49	0xbdb528ad	-0.08845649
50	0xbd89bb58	-0.06725186
51	0xbe4b5b50	-0.19859052
52	0x3dbd21be	0.092349514
53	0xbe3c69d1	-0.18399741
54	0x3d94191d	0.072313525
55	0x3c8885f6	0.01666544
56	0xbe50139f	-0.20319985
57	0x3d10a4ca	0.035313405
58	0x3df60679	0.12012953
59	0xbce1d058	-0.027565166
60	0x3c5fe02a	0.013664285
61	0x3d6e356f	0.058156427
62	0xbc5d4409	-0.01350499
63	0x3e15982a	0.14608827
64	0x3d69b494	0.05705698
65	0x3d03e125	0.032197136
66	0xbdd523f1	-0.10407246
67	0x3dafa4aa	0.08576329
68	0x3e295a83	0.16538434
69	0xbcaca438	-0.0210744
70	0x3d57ded3	0.052702736
71	0xbe427fbf	-0.18994044
72	0x3dcfc6cd	0.1014534
73	0xbdbb10a8	-0.09134036
74	0x3c17bc3b	0.009261186
75	0xbdf95877	-0.121750765
76	0xbe15ede7	-0.14641534
77	0x3ca6d592	0.02036551
78	0x3d73821c	0.059450254
79	0x3c75e3be	0.015007911
80	0xbe0c1697	-0.13680492
81	0x3e367446	0.17817792
82	0xbd570af1	-0.05250067
83	0x3d81f541	0.063456066
84	0xbd12b24b	-0.035814565
85	0x3e25d67f	0.16195105
86	0xbdd47520	-0.10373902
87	0x3d9377d6	0.07200591
88	0x3de84ba9	0.11342556
89	0x3d94a323	0.07257678
90	0x3da46a74	0.08028117
91	0xbe094df4	-0.13408643
92	0x3da116bc	0.07865664
93	0xbe2a282d	-0.16616888
94	0xbdf1ab7b	-0.118002854
95	0x3974edb0	0.00023358199
96	0xbd01c668	-0.031683356
97	0x3c05a2e2	0.00815651
98	0xbd8466d2	-0.06464924
99	0xbe20d575	-0.15706427
100	0x3e45c901	0.19314958
101	0x3decbc93	0.11559405
102	0xbda80116	-0.08203332
103	0xbda2f196	-0.07956235
104	0x3dde8398	0.10864943
105	0x3cf10022	0.029419009
106	0xbe1ef140	-0.15521717
107	0x3d4e3551	0.050343815
108	0x3d91898d	0.07106314
109	0xbbba8215	-0.0056917765
110	0x3da9ed98	0.082972705
111	0xbdf08b9f	-0.117453806
112	0x3dc339da	0.09532519
113	0xbdfe85ba	-0.1242785
114	0x3d983552	0.07432045
115	0xbd1ee26f	-0.038790163
116	0x3d66ddb4	0.056363776
117	0x3d2e8ecf	0.04261666
118	0x3e2cc78b	0.16872995
119	0xbd910bc8	-0.07082325
120	0xbe391af5	-0.1807669
121	0x3dd82a18	0.10554904
122	0x3da7772b	0.08177026
123	0xbaad55a9	-0.0013224381
124	0xbe21eb3a	-0.15812388
125	0xbdc34f2e	-0.09536587
126	0x3db60e4e	0.08889447
127	0xbc0be3e1	-0.008538217
128	0x3d5c1f89	0.05374101
129	0x3daa4f20	0.08315873
130	0xbdfc4ffa	-0.12319942
131	0x3d71112b	0.058854263
132	0xbd6b6ba3	-0.057475697
133	0xbe0d75c1	-0.13814451
134	0x3e296e2b	0.16545932
135	0xbe41f774	-0.18942052
136	0x3e1c796d	0.15280695
137	0x3e027b72	0.12742403
138	0xbd9cc2b1	-0.07654322
139	0x3c4b4aee	0.012408001
140	0x3c44c2ae	0.012009306
141	0xbe47099f	-0.19437264
142	0x3e075f76	0.13220009
143	0x3d754a00	0.059885025
144	0xbcae4f5d	-0.021278078
145	0x3e2374e0	0.15962553
146	0xbde9edee	-0.114223346
147	0xbe204030	-0.15649486
148	0xbd0b3169	-0.033982668
149	0xbd60d355	-0.054889042
150	0xbe13b298	-0.14423597
151	0x3e431460	0.19050741
152	0x3e4ecad1	0.20194556
153	0xbe15ccf4	-0.14628965
154	0x3ba9c5eb	0.0051810644
155	0x3e56a91a	0.20962945
156	0x3dcb505a	0.09927435
157	0xbd22939e	-0.03969156
158	0xbd2c5e35	-0.04208203
159	0xbe2254ad	-0.15852614
160	0x3db3252f	0.087473266
161	0x3c99756d	0.01873275
162	0xbde2a99f	-0.11067509
163	0xbc8b8f44	-0.017036088
164	0x3db3aa1b	0.087726794
165	0x3d91551f	0.07096314
166	0x3deea834	0.11653176
167	0x3cb69770	0.022289008
168	0xbcf40384	-0.029786833
169	0x3d9f4717	0.07777231
170	0xbd8f1b34	-0.069876105
171	0xbe55aa1b	-0.20865671
172	0x3dd67c04	0.10472873
173	0x3d897589	0.06711871
174	0xbccc025e	-0.024903473
175	0x3e9aad6d	0.30210438
176	0xbe738d48	-0.23784363
177	0xbd7ae7da	-0.061256267
178	0xbde7fa79	-0.11327071
179	0xbdd22d63	-0.10262563
180	0x3da580af	0.08081185
181	0x3d5d9117	0.054093447
182	0x3daec0f0	0.08532894
183	0x3da2e102	0.07953073
184	0xbe4a5257	-0.19757973
185	0x3e28f617	0.16500126
186	0xbdd4c698	-0.10389441
187	0x3c9849f3	0.01858995
188	0x3dc86d03	0.09786417
189	0x3d041132	0.03224296
190	0xbd152d0a	-0.036419906
191	0xbde173c4	-0.11008409
192	0x3daf06a2	0.08546187
193	0x3d261e41	0.040556196
194	0xbdd176a3	-0.10227706
195	0xbe0d5f6c	-0.13805932
196	0xbe10628f	-0.14100097
197	0x3d1d42b0	0.038393676
198	0xbdcb5855	-0.099289574
199	0x3df362b6	0.11884062
200	0x3e0abe3a	0.13549128
201	0x3e0ff82d	0.14059515
202	0xbe302b47	-0.17204009
203	0x3e48b13a	0.19598857
204	0xbd5f9a70	-0.054590642
205	0x3b83eae8	0.0040258057
206	0x3e1408f1	0.14456536
207	0xbde247a6	-0.11048822
208	0xbc11fbfc	-0.008910175
209	0xbdc1ce1b	-0.094631396
210	0x3e4a3890	0.1974814
211	0xbd70ec9c	-0.0588194
212	0xbe068334	-0.13135988
213	0xbd893a4d	-0.06700573
214	0xbe1ef0a4	-0.15521485
215	0x3d0d1e88	0.034452945
216	0xbb8aa525	-0.0042311125
217	0xbc8f6e94	-0.017508782
218	0x3df2860e	0.11841975
219	0xbe098a8c	-0.13431758
220	0x3e06f23c	0.13178343
221	0x3d5936e6	0.05303087
222	0xbcf8990c	-0.030346416
223	0x3dd5be19	0.10436649
224	0x3de7aa91	0.1131183
225	0xbcc908c7	-0.024540318
226	0x3c27797a	0.010221833
227	0xbc395041	-0.011310638
228	0xbd919974	-0.07109347
229	0x3e39bb5d	0.1813788
230	0xbdb4d419	-0.08829517
231	0x3d778c78	0.060436696
232	0x3ce32f89	0.027732627
233	0xbd880d54	-0.06643167
234	0xbe1689f7	-0.14701067
235	0xbe1e8929	-0.1548201
236	0x3e368c51	0.17826964
237	0xbe25ece7	-0.16203652
238	0xbe0e6810	-0.13906884
239	0x3e177916	0.14792284
240	0x3df96ad2	0.121785775
241	0xbc33d5a1	-0.010976226
242	0xbc245b82	-0.010031583
243	0xbd106d41	-0.035260443
244	0x3cf4426b	0.029816827
245	0x3e32cd7a	0.17461196
246	0x3c5986f2	0.013276802
247	0x3e142ef7	0.1447104
248	0xbd8d8d04	-0.06911662
249	0xbdc365ba	-0.09540887
250	0x3e31ad5b	0.17351286
251	0xbc922915	-0.017841855
252	0xbe01c937	-0.12674414
253	0xbe0272cc	-0.12739104
254	0xbdc420e6	-0.095765874
255	0x3d859994	0.06523433

bias f4 [256]
0	0x3d91812c	0.07104716
1	0xbe19c993	-0.150183
2	0xbe25eb75	-0.16203101
3	0xbe2946e2	-0.16530946
4	0xbdf6ca6b	-0.12050327
5	0xbe1c4fac	-0.15264767
6	0x3daa89c9	0.08327062
7	0x3e059dc9	0.13048472
8	0x3df7e2ab	0.1210378
9	0x3df9221c	0.12164709
10	0xbdc8bffe	-0.098022446
11	0x3d57fb2d	0.052729774
12	0xbe2f4ec0	-0.17119884
13	0xbdcecf52	-0.10098137
14	0xbde274cc	-0.110574335
15	0xbdc56797	-0.09638899
16	0xbe1c780b	-0.15280168
17	0x3d674dfa	0.05647085
18	0x3c8abc1c	0.0169354
19	0xbe138d61	-0.144094
20	0xbd40b84b	-0.047050755
21	0xbd1acd01	-0.037793163
22	0xbe2642ad	-0.16236372
23	0x3df5584f	0.11979734
24	0x3bfc8b55	0.0077070394
25	0x3e18147b	0.14851563
26	0x3dc5c2f4	0.09656325
27	0xbde5263b	-0.111889325
28	0xbcb8b431	-0.02254686
29	0x3e260968	0.16214526
30	0xbe33d370	-0.17561126
31	0x3e18fe1a	0.14940682
32	0xbd1f7362	-0.038928397
33	0x3dd33dc0	0.10314512
34	0x3e08330a	0.1330072
35	0xbe234dac	-0.15947598
36	0xbc1d99e9	-0.009619215
37	0xbd0648f1	-0.032784406
38	0xbe036bb5	-0.12834056
39	0x3d5794a6	0.052631997
40	0xbdc95c21	-0.09832025
41	0xbdfa4598	-0.12220305
42	0x3c1d455c	0.009599056
43	0xbcaa3b01	-0.020780088
44	0xbd1dace9	-0.038494978
45	0xbd8cf8e4	-0.068834096
46	0x3df184a3	0.117928766
47	0x3d1c7593	0.038198065
48	0x3e11a996	0.14224848
49	0xbde2d300	-0.11075401
50	0x3e2641ae	0.16235992
51	0x3d88a95b	0.06672927
52	0x3bcee6dd	0.006314142
53	0xbd8f02de	-0.06982969
54	0xbced3fee	-0.028961148
55	0x3dd9a929	0.10627968
56	0x3de74cc1	0.112939365
57	0x3d154113	0.036439013
58	0x3ddf848d	0.10913954
59	0xbd46bff4	-0.048522905
60	0x3c7f22b0	0.015572235
61	0xbe1c4f1f	-0.15264557
62	0xbdb20d6e	-0.08693968
63	0x3dc1e90f	0.094682805
64	0xbd8e9c75	-0.069634356
65	0x3e29a4e2	0.16566804
66	0x3df5a140	0.119936466
67	0x3dd1aa41	0.102375515
68	0xbe03d9d9	-0.12876071
69	0xbd1d2882	-0.03836871
70	0x3da8b4a2	0.08237578
71	0xbdf11f80	-0.11773586
72	0x3dc12a0c	0.09431848
73	0xbd521909	-0.051293407
74	0x3e1788af	0.14798234
75	0xbe330e9e	-0.17486045
76	0xbe35ef5c	-0.1776709
77	0x3d968d86	0.07351212
78	0xbe16a546	-0.14711484
79	0x3d0ee288	0.034884006
80	0x3c790fec	0.01520155
81	0x3d75c99a	0.060006715
82	0x3dd77db2	0.10522021
83	0xbd9d8f4a	-0.07693346
84	0xbc9f460b	-0.019442579
85	0xbd02a71b	-0.031897645
86	0x3dbecb19	0.093160816
87	0xbdd88f9b	-0.105742656
88	0xbc76542e	-0.015034718
89	0xbdbf55e4	-0.09342554
90	0x3dfdb3cd	0.1238781
91	0xbd95d46e	-0.07315908
92	0xbe32417e	-0.17407796
93	0x3de6b631	0.11265219
94	0x3d41cd9e	0.047315232
95	0xbcd49a74	-0.025952555
96	0xbde1a551	-0.1101786
97	0x3da360d1	0.07977451
98	0x3d8656be	0.065595135
99	0x3e231097	0.15924297
100	0xbdb7b86c	-0.089707226
101	0xbd510497	-0.051029768
102	0xbe000446	-0.1250163
103	0xbdd337b3	-0.10313358
104	0xbdc904a3	-0.098153375
105	0xbdd64b32	-0.10463561
106	0x3cee24ce	0.029070284
107	0x3c5e233f	0.013558208
108	0x3dc5aa13	0.0965158
109	0x3dcc39e5	0.0997198
110	0x3d080e21	0.0332166
111	0xbdebd1bf	-0.11514615
112	0xbde93d2d	-0.113886215
113	0xbd27fa0f	-0.04100996
114	0x3e0492f6	0.12946686
115	0xbdcac834	-0.09901467
116	0xbd4dd7af	-0.05025452
117	0x3e1a4256	0.15064368
118	0xbdf4e84f	-0.11958372
119	0xbd9407e9	-0.07228071
120	0x3e2bdcdd	0.16783471
121	0x3e03f6a7	0.12887059
122	0xbdef05b3	-0.11671009
123	0x3d97e212	0.07416166
124	0x3ca131d0	0.019677073
125	0x3cf2af01	0.029624464
126	0x3de83bf8	0.11339563
127	0x3e24c57f	0.16090964
128	0xbe06a40d	-0.13148518
129	0xbe25e562	-0.16200784
130	0xbe0f866d	-0.14016123
131	0x3e27165a	0.1631712
132	0x3d63771b	0.05553351
133	0x3e2b4132	0.16724089
134	0x3d002219	0.031282518
135	0x3dda8113	0.1066915
136	0x3ce99a32	0.028515909
137	0x3df6f9e1	0.12059379
138	0x3d95f36e	0.07321821
139	0x3df40ac2	0.119161144
140	0x3e31465e	0.17311999
141	0x3de5bdff	0.112178795
142	0x3d5ca0db	0.05386434
143	0x3d639ec2	0.055571325
144	0xbe294970	-0.1653192
145	0x3d8d894f	0.06910955
146	0xbcb24bc7	-0.02176465
147	0xbda610cf	-0.08108675
148	0xbe24217d	-0.160284
149	0xbd2ca121	-0.042145852
150	0x3e20794b	0.1567127
151	0xbe10e1a0	-0.14148569
152	0xbc0aeeaf	-0.008479758
153	0x3be1061e	0.0068671843
154	0xbd5238da	-0.05132375
155	0xbd7d71ed	-0.061876226
156	0xbdc0fe06	-0.09423451
157	0x3c4b6b5c	0.012415733
158	0xbe2e8b8f	-0.17045425
159	0x3c349d47	0.011023826
160	0xbddebddc	-0.108760566
161	0xbe2ef063	-0.17083888
162	0x3d6969c8	0.056985646
163	0x3d8c528e	0.068516836
164	0xbb87cb9c	-0.004144145
165	0xbdab92af	-0.08377587
166	0xbe06e329	-0.13172592
167	0xbd9e6417	-0.077339344
168	0xbe181fd3	-0.1485589
169	0x3e264663	0.16237788
170	0xbdc27c5f	-0.09496378
171	0xbe13fb6c	-0.14451379
172	0xbda50808	-0.080581725
173	0x3e0ec801	0.13943483
174	0xbc48d325	-0.012257372
175	0x3d9d4f35	0.07681123
176	0xbd33d282	-0.043901928
177	0x3debbfef	0.11511218
178	0xbe10aa93	-0.14127569
179	0xbda765bd	-0.08173702
180	0xbd895abd	-0.0670676
181	0x3dd7abc9	0.10530812
182	0xbddef4c8	-0.10886532
183	0x3c6b436d	0.014359337
184	0xbdec16af	-0.11527764
185	0x3e081fa6	0.13293323
186	0xbdfabd9d	-0.12243197
187	0x3d7216c0	0.059103727
188	0xbd641d11	-0.055691782
189	0xbe108ef2	-0.1411703
190	0xbd6f63c2	-0.058444746
191	0xbd14a38c	-0.036288783
192	0xbda45f7d	-0.080260254
193	0xbddeb7a3	-0.1087487
194	0x3dc16099	0.09442253
195	0x3e0b0ef2	0.1357992
196	0xbe0d4e83	-0.13799481
197	0x3e1eb856	0.15500006
198	0xbd97aa1e	-0.07405494
199	0x3d64d38f	0.05586582
200	0xbd8682b7	-0.06567901
201	0x3e081eda	0.13293019
202	0xbe160018	-0.14648473
203	0xbcd5240c	-0.026018165
204	0xbdbf1e8b	-0.093319975
205	0xbd2e7bcf	-0.04259854
206	0x3d87beb9	0.06628174
207	0xbd36d32a	-0.044634975
208	0x3e10703e	0.14105317
209	0xbd109ccc	-0.035305783
210	0xbe2046f2	-0.15652063
211	0xbcb79fd7	-0.022415085
212	0xbe0674a3	-0.13130431
213	0xbd79621d	-0.060884584
214	0xbd98c2a8	-0.07459003
215	0xbe0cba59	-0.13742961
216	0x3d9eea62	0.07759549
217	0xbe32d0b7	-0.17462431
218	0x3e2a1f73	0.1661356
219	0xbdb64fe4	-0.08901957
220	0x3e0f0db4	0.13970071
221	0x3c0c34a9	0.008557477
222	0xbd7a49ee	-0.06110566
223	0x3dcd931c	0.100378245
224	0xbd907c42	-0.0705495
225	0x3c96129f	0.018319426
226	0xbc4f0c1d	-0.012637165
227	0xbe20d2ca	-0.1570541
228	0xbe093389	-0.13398565
229	0x3ddaeb74	0.1068944
230	0x3cb2a490	0.021806985
231	0x3b261690	0.0025343038
232	0x3e2191b7	0.15778242
233	0x3e2fa165	0.17151411
234	0xbe2e58d5	-0.17026074
235	0x3d308872	0.043098874
236	0xbc9e6de0	-0.019339502
237	0x3e3aa73d	0.18227859
238	0xbdf8fdc1	-0.12157775
239	0xbdeaed88	-0.11471087
240	0x3ddc196f	0.107470386
241	0x3e1ea371	0.15492035
242	0xbdf0f522	-0.117655054
243	0x3d9fb0ad	0.0779737
244	0xbde48e87	-0.111599974
245	0x3dc6e326	0.09711294
246	0xbc532c88	-0.012889035
247	0xbd09d376	-0.03364893
248	0x3d4a5edf	0.049406882
249	0x3cdbec22	0.026845995
250	0x3d3ff3cd	0.046863366
251	0x3da57390	0.080786824
252	0x3e19928f	0.14997314
253	0x3e16ad98	0.14714658
254	0x3defefe4	0.117156774
255	0xbdd36b8a	-0.10323246

weight f4 [256]
0	0x3ea505f6	0.3223111
1	0x3efb4a44	0.49080098
2	0x3e8ab536	0.27091378
3	0x3f8fc1c0	1.1231003
4	0x3f732390	0.9497614
5	0x3ebc8bdb	0.3682545
6	0x3f16ee73	0.58957595
7	0x3e4babc6	0.19889745
8	0x3f49aa07	0.78775066
9	0x3efc60c4	0.49292576
10	0x3f0997e4	0.5374739
11	0x3f1c397f	0.6102523
12	0x3f0dbf50	0.55370045
13	0x3e4c2332	0.19935301
14	0x3ed91b9b	0.42403874
15	0x3f2de7d4	0.67931867
16	0x3e651893	0.22372656
17	0x3f8a53e7	1.0806855
18	0x3e9290ba	0.28626043
19	0x3f7f4dce	0.99728096
20	0x3e196e90	0.14983582
21	0x3f4486ac	0.7676799
22	0x3efb4aea	0.49080592
23	0x3e674fd0	0.2258904
24	0x3f42af16	0.7604841
25	0x3f149815	0.5804456
26	0x3ebb1cff	0.3654556
27	0x3ee6d793	0.45086345
28	0x3e77dc88	0.2420522
29	0x3f0496e6	0.5179275
30	0x3e3b8a52	0.18314484
31	0x3e91d338	0.2848146
32	0x3d713d8b	0.058896583
33	0x3f469f40	0.77586746
34	0x3eb709f3	0.35749778
35	0x3e645c86	0.2230092
36	0x3f75b9d0	0.9598665
37	0x3e23d15a	0.1599783
38	0x3ec27ee1	0.37987426
39	0x3f0f36b6	0.5594286
40	0x3f092895	0.5357755
41	0x3f2490e5	0.6428359
42	0x3f44742d	0.7673977
43	0x3f19f943	0.6014597
44	0x3f2020b4	0.625499
45	0x3f1e2230	0.61770916
46	0x3e6f2d4d	0.23357125
47	0x3f03dad7	0.515058
48	0x3e61f12a	0.22064653
49	0x3ea4ece2	0.32211977
50	0x3efab851	0.48968747
51	0x3f37ad6b	0.7174899
52	0x3f72f5d4	0.94906354
53	0x3f5d6c12	0.8649303
54	0x3f36de51	0.7143298
55	0x3e83ee03	0.25767526
56	0x3f495a6a	0.78653586
57	0x3eeca005	0.46215835
58	0x3e95434f	0.29152915
59	0x3e87133f	0.2638187
60	0x3e64d133	0.22345428
61	0x3ef72b07	0.48275015
62	0x3f1dff79	0.61717945
63	0x3f15da56	0.5853628
64	0x3e30e673	0.1727541
65	0x3e5061be	0.20349786
66	0x3f1beecf	0.6091127
67	0x3f0239d8	0.5086951
68	0x3e40a2ce	0.18812105
69	0x3f194105	0.59864837
70	0x3de0f01c	0.10983297
71	0x3f39b6cc	0.7254455
72	0x3f2d9a82	0.67813885
73	0x3f5ebbf2	0.8700553
74	0x3ed2bff8	0.41162086
75	0x3e8762bd	0.2644252
76	0x3f18d83a	0.59704936
77	0x3e92bcbc	0.28659618
78	0x3f1166e5	0.5679763
79	0x3e81ffba	0.25390416
80	0x3e64dc12	0.22349575
81	0x3f05b060	0.5222225
82	0x3f0bdf62	0.5463773
83	0x3f429bb8	0.7601886
84	0x3f36ba39	0.71377903
85	0x3e8cce4c	0.27501142
86	0x3f030db9	0.51192814
87	0x3f0260f7	0.50929207
88	0x3eb308fa	0.34967786
89	0x3e3559f9	0.17710103
90	0x3ed2bdfb	0.4116057
91	0x3ed0230a	0.40651733
92	0x3e9bd498	0.30435634
93	0x3e7e637c	0.24842638
94	0x3e1cc446	0.15309247
95	0x3f45bc6e	0.77240646
96	0x3f2d532b	0.6770503
97	0x3e54722c	0.20746678
98	0x3ec2540d	0.3795475
99	0x3e80bef9	0.251457
100	0x3f2233c2	0.63360226
101	0x3f39476e	0.7237462
102	0x3f02c565	0.5108245
103	0x3edfd807	0.43719503
104	0x3e8f74a0	0.28018665
105	0x3eac0bb6	0.33602685
106	0x3f457177	0.7712626
107	0x3e979993	0.29609355
108	0x3f123447	0.5711102
109	0x3e452e4c	0.19255942
110	0x3ee6faa7	0.45113108
111	0x3f489ddd	0.7836588
112	0x3ed251ce	0.41078037
113	0x3ee16c1a	0.44027787
114	0x3f0143fc	0.5049436
115	0x3ea17ce3	0.31540594
116	0x3f0ca696	0.5494169
117	0x3f61cf17	0.8820662
118	0x3e6c39a8	0.23068869
119	0x3efbdef9	0.49193552
120	0x3e4b8c04	0.1987763
121	0x3eb4c902	0.35309607
122	0x3e751c71	0.23936631
123	0x3e50b988	0.20383275
124	0x3f06d6da	0.5267159
125	0x3edd4491	0.43216375
126	0x3ee230cb	0.4417785
127	0x3f2d8683	0.67783374
128	0x3f212102	0.6294099
129	0x3f5956da	0.8489815
130	0x3f1e6452	0.61871827
131	0x3e9f1b0b	0.3107532
132	0x3f2c4aba	0.67301524
133	0x3e5b4d90	0.21416306
134	0x3f1d71e6	0.6150192
135	0x3f030d50	0.5119219
136	0x3eb728c4	0.3577329
137	0x3f19eb3a	0.6012455
138	0x3f01ec33	0.50751036
139	0x3f06e515	0.526933
140	0x3eab6bec	0.33480775
141	0x3ee203d0	0.44143534
142	0x3e97c60d	0.29643288
143	0x3efbc0ef	0.49170634
144	0x3db7115c	0.08938858
145	0x3ea3dad6	0.32002896
146	0x3ec3ebe5	0.3826591
147	0x3e1af781	0.15133478
148	0x3f0ed065	0.55786735
149	0x3ebac12c	0.36475503
150	0x3ec4d28b	0.38441882
151	0x3f6174a6	0.88068616
152	0x3f40160b	0.75033635
153	0x3ef8d86a	0.4860261
154	0x3f44b653	0.76840705
155	0x3f66cf3d	0.9015997
156	0x3e89d297	0.2691848
157	0x3e5aeffa	0.21380606
158	0x3f3d9376	0.7405313
159	0x3f30448f	0.6885461
160	0x3f652dff	0.8952331
161	0x3f2b0b7d	0.66814405
162	0x3f2e03bb	0.6797444
163	0x3f49f805	0.7889407
164	0x3eafbae4	0.34322274
165	0x3f5a0e7d	0.8517836
166	0x3ed93666	0.42424315
167	0x3ea36e31	0.31920007
168	0x3f346d56	0.70479333
169	0x3f2c00d1	0.67188746
170	0x3dd89a00	0.10576248
171	0x3f26bafb	0.6512906
172	0x3f1773b1	0.59160906
173	0x3efc6782	0.4929772
174	0x3ef9a0d2	0.4875551
175	0x3f59c426	0.85064924
176	0x3ede04e9	0.4336312
177	0x3f1f7bff	0.6229858
178	0x3f0ab47f	0.54181665
179	0x3f6b23c4	0.9185145
180	0x3f5c50b4	0.86060643
181	0x3e6d7f72	0.23193148
182	0x3f1bbd77	0.60835975
183	0x3ebdda69	0.37080696
184	0x3f119650	0.56869984
185	0x3e17437a	0.14771834
186	0x3f32444b	0.69635457
187	0x3eb29080	0.3487587
188	0x3e87d356	0.26528424
189	0x3f1d7290	0.61502934
190	0x3e976d86	0.29575747
191	0x3f04f1d0	0.51931477
192	0x3e3a1ad0	0.1817429
193	0x3f18f4d5	0.59748584
194	0x3f61aa29	0.8815027
195	0x3ed3b011	0.41345266
196	0x3e8d0c61	0.27548507
197	0x3ea4c1d7	0.32179138
198	0x3f28334c	0.6570327
199	0x3f1f494b	0.6222121
200	0x3e15b9a0	0.14621592
201	0x3e425605	0.18978126
202	0x3ec89025	0.39172474
203	0x3f1139b2	0.5672866
204	0x3f0dd1e6	0.55398405
205	0x3f59e5b3	0.8511612
206	0x3f387580	0.7205429
207	0x3e429319	0.19001426
208	0x3ed6158d	0.41813317
209	0x3f5496b2	0.8304244
210	0x3e9d7c84	0.3075906
211	0x3f438b3a	0.7638432
212	0x3f3ef68e	0.7459496
213	0x3f1f2397	0.6216368
214	0x3f204f43	0.62620944
215	0x3eb3f265	0.3514587
216	0x3ea32ada	0.3186863
217	0x3e20eaa7	0.15714513
218	0x3eefdd83	0.46848688
219	0x3f2da125	0.6782401
220	0x3e6f0c4c	0.23344535
221	0x3ec2dde2	0.38059908
222	0x3f5a59a6	0.8529304
223	0x3f6debb9	0.9293781
224	0x3efa316c	0.4886583
225	0x3e26f115	0.16302903
226	0x3f79faa6	0.97648084
227	0x3eeb53dd	0.4596242
228	0x3e8ac26b	0.27101454
229	0x3e668686	0.22512254
230	0x3ed339a2	0.41254908
231	0x3ef29072	0.47375828
232	0x3ea89f09	0.32933834
233	0x3ee57c37	0.4482133
234	0x3e7470ae	0.23871109
235	0x3efcc230	0.49366903
236	0x3f44af6b	0.76830167
237	0x3f6e676b	0.93126553
238	0x3ef7ff2a	0.48436862
239	0x3eb76f44	0.35827076
240	0x3eed40ce	0.46338505
241	0x3f3abd93	0.7294552
242	0x3e8348a7	0.25641367
243	0x3f1def4e	0.61693275
244	0x3ed76a42	0.42073256
245	0x3f321a81	0.6957169
246	0x3f3e5d62	0.7436124
247	0x3f0ccfe1	0.550047
248	0x3f575fde	0.84130657
249	0x3ebebb48	0.3725226
250	0x3ec2468c	0.37944448
251	0x3f858253	1.0430397
252	0x3f485f0c	0.7827003
253	0x3f65ff70	0.8984289
254	0x3ea5ce57	0.32383987
255	0x3ed9a0cd	0.42505494

bias f4 [256]
0	0xbd43d217	-0.04780778
1	0x3dd6948a	0.1047755
2	0x3d3154da	0.04329381
3	0x3ee74f67	0.45177767
4	0x3eaef884	0.34173977
5	0x3d403bc2	0.04693199
6	0x3f06cb51	0.52653986
7	0x3ec8db42	0.3922978
8	0x3e2cb478	0.16865718
9	0xbe3cb775	-0.18429358
10	0x3ebb72e6	0.36611098
11	0x3d6ecca7	0.05830064
12	0x3d8290d1	0.06375278
13	0x3d8d08ab	0.06886419
14	0xbe2a42a7	-0.16626988
15	0x3e27043c	0.16310209
16	0x3e51be1e	0.2048268
17	0x3dfdbb3d	0.123892285
18	0xbd58f136	-0.05296441
19	0xbe96b45d	-0.2943448
20	0xbe131e7d	-0.14367099
21	0x3e00007b	0.12500183
22	0x3f11470b	0.5674903
23	0x3deb1789	0.11479098
24	0x3e320e61	0.17388298
25	0xbe8a2912	-0.2698446
26	0x3bf25644	0.0073955376
27	0x3d8c208d	0.06842146
28	0xbcd353b6	-0.025796752
29	0x3bc36371	0.005962782
30	0xbe6cda03	-0.2313004
31	0xbde222d4	-0.11041799
32	0x3bf78027	0.0075531187
33	0x3d2b7fc2	0.041869886
34	0x3de4b7d5	0.11167876
35	0x3d5b8f49	0.053603444
36	0x3ebc867d	0.36821356
37	0xbdce1ea5	-0.10064439
38	0xbe4e7375	-0.20161231
39	0xbc9d622f	-0.019211857
40	0xbe042ebe	-0.12908456
41	0x3ec3a90c	0.3821491
42	0xbbdeaa4b	-0.006795203
43	0x3e6f5c57	0.23375069
44	0xbdf1b3b4	-0.11801854
45	0x3dbd0eb8	0.09231323
46	0xbe2e64d3	-0.17030649
47	0xbe193184	-0.14960295
48	0x3e75dc81	0.24009897
49	0xbe83942f	-0.25698993
50	0x3e53fafc	0.20701212
51	0xbdfca931	-0.12336958
52	0x3ec43fd2	0.3832994
53	0x3e95c71d	0.29253474
54	0x3e8dc870	0.27691984
55	0xbd8edeb3	-0.0697607
56	0x3c31b4e1	0.010846348
57	0xbdfe4f15	-0.124174275
58	0x3d78a32e	0.060702495
59	0xbcf0b62b	-0.02938374
60	0x3e4b0711	0.19826914
61	0x3dd42ff4	0.10360709
62	0x3c8c9e6d	0.017165387
63	0x3e7fca4c	0.24979514
64	0xbe99ec9e	-0.30063337
65	0x3ccdddcc	0.025130175
66	0x3e86e9ea	0.26350337
67	0x3d4846c8	0.048895627
68	0xbe416533	-0.1888626
69	0xbdbcd9db	-0.0922124
70	0x3df28b10	0.1184293
71	0xbe668721	-0.22512485
72	0x3dd52274	0.10406962
73	0x3c42d19a	0.011890793
74	0xbe929b5f	-0.28634164
75	0xbe8f9907	-0.28046438
76	0x3dc0c6d2	0.09412922
77	0xbe1fe1e7	-0.15613519
78	0x3e33cd6e	0.17558834
79	0xbe0642dc	-0.13111442
80	0xbdcb0355	-0.09912745
81	0xbe0ca2de	-0.13734004
82	0x3ded9893	0.11601367
83	0x3e2abf73	0.16674595
84	0x3df87d43	0.12133267
85	0xbe92af5f	-0.28649423
86	0xbc0cb955	-0.0085891085
87	0xbe87ac03	-0.26498422
88	0x3cd25de4	0.025679536
89	0x3e960731	0.29302362
90	0x3c51d67e	0.012807487
91	0x3d29f061	0.04148901
92	0x3d47540b	0.048664134
93	0xbe2bd119	-0.16778983
94	0x3d577d54	0.052609757
95	0x3e939231	0.28822473
96	0xbecf5f90	-0.40502596
97	0x3d4420ff	0.04788303
98	0x3d5922a7	0.053011563
99	0x3e898955	0.2686259
100	0x3e4f599c	0.20249027
101	0x3ed4861a	0.4150856
102	0x3d0e74c3	0.03477932
103	0x3c65786b	0.014005761
104	0x3e198a60	0.14994192
105	0x3e8615a9	0.261884
106	0xbe9673ae	-0.29385132
107	0x3ec6079c	0.3867768
108	0xbd53b840	-0.051689386
109	0x3d990268	0.07471162
110	0x3e817c2c	0.25290048
111	0xbe89c54c	-0.26908338
112	0x3e918f37	0.28429577
113	0x3e80b81f	0.25140473
114	0x3f072371	0.52788454
115	0xbe29fb09	-0.16599669
116	0x3d9b5a46	0.07585578
117	0xbc983937	-0.01858197
118	0x3e2f1bc3	0.17100434
119	0x3e58d5c5	0.21175297
120	0xbe8a8f82	-0.27062613
121	0xbe4cf51c	-0.20015377
122	0xbdd8ae15	-0.105800785
123	0x3dc185f6	0.09449379
124	0x3e0b985a	0.13632336
125	0xbe000422	-0.12501577
126	0xbdfbdc34	-0.1229786
127	0xbeeeacbb	-0.46616158
128	0xbe88a19f	-0.26685807
129	0xbd6e1a1f	-0.05813038
130	0x3df14f11	0.11782659
131	0x3e5df045	0.21673687
132	0x3dcca9fa	0.09993358
133	0x3da074c9	0.07834775
134	0x3e222efb	0.15838234
135	0xbd4eb80d	-0.050468493
136	0x3dc388b9	0.09547562
137	0xbe6b9f5e	-0.23010013
138	0xbdd3136a	-0.10306437
139	0x3c0da657	0.008645616
140	0xbdbe28cb	-0.092851244
141	0x3d90d46c	0.07071766
142	0x3ea6bfc5	0.32568184
143	0x3e406ab8	0.1879071
144	0xbc28d212	-0.010303991
145	0x3db48096	0.08813588
146	0x3e936e51	0.28795102
147	0x3e2e8bd5	0.17045529
148	0x3e8329c7	0.2561781
149	0x3dec8ebb	0.11550661
150	0xbd666d71	-0.056256715
151	0x3e714fa6	0.2356554
152	0xbcca02a8	-0.02465947
153	0x3ec1ecdd	0.37876025
154	0xbd3464bc	-0.04404138
155	0xbde509d9	-0.11183519
156	0x3e718eba	0.23589602
157	0x3d7b655d	0.061375964
158	0x3e64a7fe	0.22329709
159	0x3e0d4f99	0.13799895
160	0x3cd59fb8	0.026077136
161	0x3ca9e830	0.020740598
162	0x3d89d694	0.06730381
163	0x3efab892	0.4896894
164	0x3d88932f	0.06668698
165	0xbe8f7640	-0.28019905
166	0xbcaf28d8	-0.02138178
167	0x3d4c25d8	0.049840778
168	0x3c83c1c1	0.0160836
169	0xbd58540f	-0.05281454
170	0xbd097478	-0.03355834
171	0x3dd63b0d	0.10460482
172	0xbc214a46	-0.009844368
173	0x3e238d47	0.15971862
174	0xbde9c4de	-0.114145026
175	0x3e3be850	0.18350339
176	0x3dcdd0d0	0.100495934
177	0xbe3abbd3	-0.18235712
178	0xbd80f30a	-0.06296356
179	0xbd9ba3fe	-0.075996384
180	0x3d0a1847	0.03371456
181	0x3ca77996	0.020443719
182	0x3e90a45b	0.28250393
183	0xbb8d11a8	-0.0043050833
184	0xbda2459c	-0.07923433
185	0x3e009210	0.12555718
186	0x3d664521	0.05621827
187	0x3dbce594	0.09223476
188	0xbe49d821	-0.19711353
189	0x3e97467a	0.29545957
190	0xbc61620e	-0.013756288
191	0x3c807747	0.015681876
192	0xbe5d1f7e	-0.21594045
193	0xbe9c4de3	-0.30528173
194	0xbe86f76e	-0.2636065
195	0x3d5faa40	0.054605722
196	0x3d136466	0.03598442
197	0x3df7175b	0.120650016
198	0xbd8ef476	-0.06980221
199	0x3c52c674	0.012864698
200	0x3eff8221	0.49903968
201	0x3d1ab9af	0.037774738
202	0xbd493892	-0.049126215
203	0xbe372dc5	-0.17888553
204	0x3dd426b5	0.10358945
205	0xbe25daf4	-0.16196805
206	0x3e236c21	0.15959217
207	0x3dd35e5f	0.10320734
208	0xbd6292e1	-0.055315856
209	0x3e287a36	0.1645287
210	0x3e33aa97	0.17545544
211	0xbea2195c	-0.31659973
212	0xbe365e8b	-0.17809503
213	0x3d5f5d54	0.054532364
214	0xbd8491bf	-0.06473111
215	0xbdf68b06	-0.12038235
216	0xbdeef610	-0.116680264
217	0x3d5d3178	0.054002255
218	0xbde29685	-0.110638656
219	0x3ca39c97	0.019972129
220	0x3d298c9a	0.041393854
221	0x3d253b2a	0.040339626
222	0xbe04e920	-0.12979555
223	0xbe1e56ed	-0.15462847
224	0xbdc0dc88	-0.09417063
225	0xbdb1f847	-0.08689933
226	0x3c084423	0.008317026
227	0xbecab06c	-0.39587724
228	0xbe82bf86	-0.25536746
229	0x3c17f7d1	0.009275393
230	0x3eefbcb4	0.46823657
231	0x3e249df0	0.16075873
232	0xbe63af59	-0.22234859
233	0x3d877523	0.06614139
234	0x3d9a352b	0.07529672
235	0xbdd02425	-0.10163144
236	0xbdd32fdc	-0.10311863
237	0x3f28097d	0.6563948
238	0xbd1be844	-0.038063303
239	0xbdb72bec	-0.08943924
240	0xbe8f44d5	-0.27982202
241	0xbd5dde2b	-0.054166954
242	0x3db55031	0.08853186
243	0x3e070dfc	0.13188928
244	0x3eaa06f2	0.33208424
245	0x3e8ffc1c	0.28122032
246	0x3e0f57ec	0.13998383
247	0x3d15e5ce	0.036596112
248	0xbd42630f	-0.04745775
249	0x3e9a57d6	0.30145139
250	0x3de448e7	0.111467175
251	0xbcb174b1	-0.021662088
252	0xbe263379	-0.16230573
253	0x3f18fb8d	0.59758836
254	0x3c44d7b3	0.012014317
255	0xbddd990c	-0.10820207

running_mean f4 [256]
0	0x3e04aa44	0.12955576
1	0xbdf06030	-0.11737096
2	0xbe2c8a27	-0.16849576
3	0xbe260530	-0.16212916
4	0xbdea5b2e	-0.114431724
5	0xbdf1d0ec	-0.11807427
6	0x3db3263e	0.087475285
7	0x3e016f22	0.1264005
8	0x3de92dca	0.11385687
9	0x3dd340c2	0.10315086
10	0xbdbb7187	-0.09152513
11	0x3d609276	0.054827176
12	0xbdead41f	-0.1146624
13	0xbdc504d1	-0.09620059
14	0xbe0688fb	-0.13138191
15	0xbda3d5a7	-0.07999735
16	0xbe14b5ba	-0.14522448
17	0x3d495ac6	0.049158834
18	0x3c8079c3	0.01568306
19	0xbe1bbbdf	-0.15208386
20	0xbd007396	-0.03136023
21	0xbd339eb3	-0.04385252
22	0xbe2d75e2	-0.169395
23	0x3e2ccf51	0.1687596
24	0x3cad3974	0.02114556
25	0x3de047e3	0.10951211
26	0x3dde2295	0.1084644
27	0xbd5b3caa	-0.05352465
28	0xbc8ab12c	-0.016930185
29	0x3e38f822	0.18063405
30	0xbe0f2ade	-0.13981196
31	0x3e085bae	0.13316223
32	0x3ede933a	0.434717
33	0x3dcc74ce	0.09983216
34	0x3e0a598e	0.13510725
35	0xbe259ea1	-0.16173793
36	0xbb62adb9	-0.003458841
37	0xbd104318	-0.035220236
38	0xbe11aa15	-0.14225037
39	0x3e129e92	0.14318302
40	0xbd1a9052	-0.03773529
41	0xbdfbca91	-0.12294496
42	0xbce4460e	-0.027865436
43	0xbc743e06	-0.014907366
44	0x3e36fe22	0.17870381
45	0xbd9c4751	-0.0763079
46	0x3dc9e82b	0.09858736
47	0x3d12fe63	0.035887133
48	0x3e1332d3	0.14374857
49	0xbdfc7795	-0.12327496
50	0x3e2c77c0	0.16842556
51	0x3d73e13f	0.059540983
52	0x3c3aa875	0.011392702
53	0xbd6a0209	-0.057130847
54	0xbc46a9b4	-0.012125421
55	0x3da8379a	0.0821373
56	0x3ddab5b3	0.106791876
57	0xbdcfecae	-0.10152565
58	0x3dec6cda	0.11544199
59	0xbe4ca259	-0.19983806
60	0x3bc25113	0.005930075
61	0xbe256444	-0.1615153
62	0xbda4a353	-0.08038964
63	0x3dd87ec1	0.105710514
64	0xbd817180	-0.063204765
65	0x3e22feb2	0.15917471
66	0x3e0a8461	0.13527061
67	0x3dca6b63	0.09883764
68	0xbd2b184d	-0.041771222
69	0xbd65c4fc	-0.056096062
70	0x3e0409d6	0.12894377
71	0xbdf9d351	-0.121985085
72	0x3dd95472	0.1061181
73	0xbd725a0b	-0.059167903
74	0x3de5d3b7	0.11222022
75	0xbe4b22a1	-0.19837429
76	0xbe3d9b8d	-0.18516369
77	0x3d28e71e	0.041236036
78	0xbdfccd64	-0.12343863
79	0x3ccfa46c	0.025346957
80	0xbbc18db6	-0.005906786
81	0x3d26866d	0.040655542
82	0x3da2dd2a	0.0795234
83	0xbd8980c3	-0.067140125
84	0x3c0d9eea	0.008643845
85	0xbe0f2e7a	-0.13982573
86	0x3da956f4	0.08268538
87	0xbde2c305	-0.11072353
88	0xbc8d864c	-0.017275952
89	0xbdc5b1c9	-0.096530505
90	0x3e0bd1fc	0.13654321
91	0xbda212ae	-0.07913719
92	0xbe33337e	-0.17500111
93	0x3dbfb353	0.09360375
94	0x3ccff231	0.02538404
95	0xbc927d55	-0.017882029
96	0xbde8d916	-0.11369531
97	0x3db2723e	0.08713196
98	0xbd9b07a4	-0.07569817
99	0x3e33b863	0.17550807
100	0xbba65f8d	-0.0050773085
101	0xbd3c74d0	-0.04600984
102	0xbde31fd8	-0.11090058
103	0xbc19381c	-0.009351756
104	0xbd69bb5a	-0.057063438
105	0xbdc543eb	-0.09632095
106	0x3c89c284	0.016816385
107	0x3c6809cf	0.014162495
108	0x3dbdcaff	0.09267234
109	0x3dceff61	0.101073034
110	0x3d68c3b5	0.056827266
111	0xbe4308ad	-0.19046278
112	0xbdd821db	-0.105533324
113	0xbc7125e0	-0.014718503
114	0x3e0a5302	0.13508227
115	0xbe013804	-0.12619025
116	0xbca1685c	-0.019703083
117	0x3e0fe699	0.1405281
118	0xbdeb9d31	-0.11504591
119	0xbd832682	-0.06403829
120	0x3e1af0dd	0.15130945
121	0x3def9584	0.1169844
122	0xbdc5b779	-0.09654135
123	0x3d8e2c91	0.06942094
124	0x3cac7540	0.021052003
125	0x3cec2e15	0.028830567
126	0x3d8cbc43	0.068718456
127	0x3dc537f8	0.09629816
128	0xbe2bc85f	-0.16775654
129	0xbe2de808	-0.16983044
130	0xbda5de4a	-0.08099039
131	0x3e26f20c	0.16303271
132	0x3dd24162	0.10266377
133	0x3e1feaa3	0.1561685
134	0x3d24b810	0.0402146
135	0x3e0d097c	0.13773149
136	0x3d306442	0.043064363
137	0x3d9c28f8	0.07625002
138	0x3d328eb9	0.043593142
139	0x3dd4cee4	0.10391024
140	0x3e4c2c4d	0.19938774
141	0x3ddff806	0.109359786
142	0x3d44900d	0.04798894
143	0x3d870c8f	0.06594192
144	0xbe30aecc	-0.1725418
145	0x3d722b02	0.059123047
146	0xbc889289	-0.016671436
147	0xbd273755	-0.040824253
148	0xbe1b5817	-0.15170322
149	0xbd2c7690	-0.042105258
150	0x3e16fc7e	0.14744756
151	0xbe093e22	-0.13402608
152	0x3c469aff	0.012121915
153	0x3c625f49	0.013816663
154	0xbda7ff10	-0.08202946
155	0xbd87853b	-0.066172086
156	0xbd9d902d	-0.07693515
157	0x3c2f4045	0.010696475
158	0xbe2519d7	-0.16123138
159	0x3b92418d	0.0044633807
160	0xbdd6f650	-0.10496199
161	0xbe33d6a4	-0.17562348
162	0x3e2e12f7	0.16999422
163	0x3d9ac376	0.075568125
164	0x3e2f121a	0.17096749
165	0xbdc9eac7	-0.09859233
166	0xbdf3f8b0	-0.11912668
167	0xbd8ef627	-0.069805436
168	0xbe2531a3	-0.16132216
169	0x3ea2c035	0.31787267
170	0xbdc538a4	-0.09629944
171	0xbe11c789	-0.14236273
172	0x3d8edd95	0.06975857
173	0x3e1b3fa1	0.15160991
174	0x3b3e541f	0.002904184
175	0x3db8f010	0.09030163
176	0xbd194c4a	-0.03742627
177	0x3dda09af	0.10646378
178	0xbe17cc89	-0.14824118
179	0xbdc8d929	-0.09807045
180	0xbe4bf144	-0.19916254
181	0x3dcd269f	0.10017132
182	0xbdd7b2b0	-0.10532129
183	0x3c876fae	0.016532745
184	0xbe0874ad	-0.13325758
185	0x3e09e7b0	0.13467288
186	0xbdc7ffee	-0.097656116
187	0x3d355997	0.044274893
188	0xbd9e3abf	-0.07726049
189	0xbe14ca20	-0.1453023
190	0x3e98068a	0.2969249
191	0xbdca437f	-0.09876155
192	0xbdc10c4f	-0.09426176
193	0xbe079756	-0.13241324
194	0x3dc25dea	0.09490569
195	0x3e045b92	0.12925556
196	0xbe31d76c	-0.17367333
197	0x3e3eb155	0.18622334
198	0xbdaa4ee4	-0.083158284
199	0x3d6fad60	0.058514953
200	0xbd8d9051	-0.06912292
201	0x3e2794da	0.16365376
202	0xbe17acc9	-0.14812006
203	0xbd12a1bf	-0.035798784
204	0xbdcc2c6b	-0.099694096
205	0xbd8c7457	-0.068581276
206	0x3dc124b1	0.094308265
207	0xbd31a685	-0.043371696
208	0x3e1c7503	0.15279011
209	0x3bd74769	0.006569792
210	0xbe249e20	-0.16075945
211	0xbd1df2d5	-0.03856166
212	0x3c82e42f	0.015977947
213	0xbce7cc84	-0.028295763
214	0xbda745b0	-0.08167589
215	0xbe18f652	-0.14937714
216	0x3d76faa3	0.06029762
217	0xbe2a89af	-0.16654085
218	0x3e21d03f	0.15802096
219	0xbda1c401	-0.07898713
220	0x3e034424	0.12818962
221	0x3be2d399	0.006922197
222	0xbd838ae4	-0.06422976
223	0x3dc7bb00	0.09752464
224	0xbdba24b7	-0.09089034
225	0x3f2941d0	0.66116047
226	0xbc9816f9	-0.018565642
227	0xbe293cfc	-0.1652717
228	0xbe32e2a9	-0.17469276
229	0x3dddf731	0.10838164
230	0x3cfdeaac	0.03099569
231	0x3c4ff4a5	0.012692605
232	0x3e6c03f9	0.2304839
233	0x3e1b5c9e	0.1517205
234	0xbe4550f1	-0.19269158
235	0x3d0faed1	0.035078827
236	0xbd8c9e5e	-0.06866144
237	0x3e3ccfa9	0.18438591
238	0xbe07f92f	-0.1327865
239	0xbd4bdf14	-0.04977329
240	0x3dbd086d	0.09230123
241	0x3e09ea30	0.13468242
242	0xbdae8b36	-0.08522646
243	0x3db3e0b0	0.0878309
244	0xbdc9075b	-0.09815856
245	0x3de32799	0.11091537
246	0x3d6f15e3	0.058370482
247	0x3cf5e5c0	0.03001678
248	0x3d3b1117	0.045670595
249	0x3c887d6d	0.01666137
250	0x3d2a000e	0.04150396
251	0x3d6d15d5	0.05788215
252	0x3dd4c790	0.10389626
253	0x3e191cd9	0.14952411
254	0x3e2c7f86	0.16845521
255	0xbde4f157	-0.111788444

running_var f4 [256]
0	0x3a4b63f1	0.0007758728
1	0x39ab9a68	0.00032730703
2	0x373cfab6	1.1264046e-05
3	0x36777a4e	3.6877059e-06
4	0x383988d0	4.4234854e-05
5	0x3a1a0fa2	0.0005876963
6	0x3713583b	8.7824255e-06
7	0x3742a088	1.1600678e-05
8	0x3716a8ce	8.98e-06
9	0x3abe327c	0.0014510895
10	0x37d198b7	2.4985855e-05
11	0x383f053b	4.554282e-05
12	0x3aa2d919	0.0012424319
13	0x37ab61ce	2.0430332e-05
14	0x39364ab8	0.00017384707
15	0x38c426b3	9.3532166e-05
16	0x37c95bad	2.4003757e-05
17	0x37b0f4ce	2.1094831e-05
18	0x389d0ed0	7.4891024e-05
19	0x37e80643	2.7659471e-05
20	0x39aef3ce	0.00033369515
21	0x3720f3c6	9.593501e-06
22	0x37602555	1.33601325e-05
23	0x3ac029a3	0.0014660846
24	0x384c0010	4.863745e-05
25	0x39b7e01c	0.00035071454
26	0x38e12cb2	0.00010737161
27	0x3a43b70d	0.00074659364
28	0x37c28114	2.3186709e-05
29	0x38d00201	9.918586e-05
30	0x3a309091	0.0006735409
31	0x3849e73a	4.813748e-05
32	0x3d8f1bdf	0.06987738
33	0x3845b3a7	4.7135774e-05
34	0x3718bbb5	9.10361e-06
35	0x371e3244	9.429237e-06
36	0x37b6f71a	2.1811156e-05
37	0x3a32ca90	0.00068203453
38	0x38700baf	5.723134e-05
39	0x3b0e770f	0.0021738445
40	0x3a82814e	0.0009956749
41	0x3689db1a	4.108425e-06
42	0x39e57277	0.00043763567
43	0x38a7e6b9	8.006156e-05
44	0x3c4336ec	0.01191495
45	0x373ba410	1.1184267e-05
46	0x386e3ce9	5.680035e-05
47	0x371a1020	9.18287e-06
48	0x3745f99a	1.180023e-05
49	0x38631e08	5.4148986e-05
50	0x3796d6f6	1.7981492e-05
51	0x37bb4014	2.2321976e-05
52	0x37670722	1.3770334e-05
53	0x37d98566	2.5930534e-05
54	0x392e9c2d	0.00016652113
55	0x392846e9	0.00016048145
56	0x37964316	1.7912633e-05
57	0x3be8edb0	0.0071084127
58	0x37e59676	2.7368991e-05
59	0x3c4969db	0.012293304
60	0x37cdf59e	2.4552279e-05
61	0x380a7cb1	3.3017892e-05
62	0x381c1222	3.7210186e-05
63	0x37ed994f	2.8323992e-05
64	0x3849a443	4.8075115e-05
65	0x3886849d	6.414319e-05
66	0x38f69ca4	0.00011759371
67	0x37a627e6	1.9807321e-05
68	0x3ade1a0d	0.001694502
69	0x3a77d80c	0.0009454496
70	0x3a49482b	0.00076782954
71	0x387cf318	6.030788e-05
72	0x37fd5baf	3.0202644e-05
73	0x37801cb9	1.5272164e-05
74	0x39853395	0.00025406168
75	0x3a1a430b	0.0005884624
76	0x3784c185	1.582574e-05
77	0x39240f47	0.0001564595
78	0x39220265	0.00015450416
79	0x38029043	3.112877e-05
80	0x3a122164	0.00055744336
81	0x38996702	7.314795e-05
82	0x38df16dc	0.000106377265
83	0x37b3b464	2.1422464e-05
84	0x3982d0f6	0.0002495122
85	0x3c1835a7	0.009290135
86	0x3833d40a	4.2874402e-05
87	0x37e61db4	2.7431968e-05
88	0x376ac2ac	1.39928125e-05
89	0x36a65839	4.957456e-06
90	0x38d09a67	9.9469726e-05
91	0x37b3e827	2.1446567e-05
92	0x37203d3c	9.551e-06
93	0x397f4763	0.00024345289
94	0x3aa2be48	0.0012416327
95	0x37a3f2d0	1.9544183e-05
96	0x378cb9a7	1.6775752e-05
97	0x374a7739	1.2067897e-05
98	0x3b7d72cb	0.0038673158
99	0x38f1e1cf	0.00011533836
100	0x3af26390	0.0018492807
101	0x373dfad5	1.1323679e-05
102	0x385dad8b	5.285213e-05
103	0x3b07c9e4	0.0020719701
104	0x39970aa6	0.00028808898
105	0x381ad5bc	3.6915517e-05
106	0x38b81f7a	8.779667e-05
107	0x36c05589	5.7320035e-06
108	0x37badb20	2.2274966e-05
109	0x378f4def	1.7083219e-05
110	0x390fc5f5	0.00013711287
111	0x3a8aead1	0.0010598545
112	0x37c8c37f	2.3932893e-05
113	0x39040e37	0.00012593796
114	0x370a3e8d	8.240005e-06
115	0x3a28c631	0.0006438224
116	0x396975d9	0.00022264513
117	0x37a8e017	2.013151e-05
118	0x37d2dc34	2.513649e-05
119	0x37b698f5	2.1767317e-05
120	0x389b1be7	7.396173e-05
121	0x39489ebf	0.00019132624
122	0x392579de	0.00015781025
123	0x3788ce7c	1.6308615e-05
124	0x378b34e1	1.6594715e-05
125	0x38002efe	3.0561343e-05
126	0x39faa791	0.00047808563
127	0x3b57a2a9	0.003290335
128	0x3a5bfe0e	0.0008392044
129	0x377683af	1.4693403e-05
130	0x3a3c7c58	0.00071901595
131	0x374624b5	1.1810266e-05
132	0x3a1e4cf3	0.0006038688
133	0x3ac96a0b	0.0015366686
134	0x379dc73d	1.8808636e-05
135	0x3a2e020f	0.000663788
136	0x38bf55d5	9.123577e-05
137	0x39a35120	0.00031150226
138	0x3abc53ad	0.0014368199
139	0x39a5a9e2	0.00031597825
140	0x392da16a	0.00016558697
141	0x37d8f77c	2.586445e-05
142	0x375a77d2	1.302171e-05
143	0x3771c158	1.4409736e-05
144	0x37c13010	2.3029774e-05
145	0x381f7b4e	3.802339e-05
146	0x3792b14a	1.7487113e-05
147	0x3a26be67	0.00063607696
148	0x37c0776a	2.294379e-05
149	0x384dd736	4.907624e-05
150	0x37bcbb74	2.2498636e-05
151	0x37a36079	1.9476038e-05
152	0x390fe060	0.00013721129
153	0x3705da7e	7.978289e-06
154	0x39c24185	0.0003705138
155	0x380744e0	3.2250653e-05
156	0x38b4d5be	8.6228814e-05
157	0x37c30c0f	2.3251427e-05
158	0x37faffb1	2.9921388e-05
159	0x378dd183	1.6906071e-05
160	0x391bb9fa	0.00014851234
161	0x374d5330	1.2238321e-05
162	0x3b34ba77	0.0027576962
163	0x375be167	1.3105898e-05
164	0x3c674967	0.014116622
165	0x391c030e	0.00014878457
166	0x3839c8e0	4.4294517e-05
167	0x37171e61	9.0073745e-06
168	0x3861e13e	5.3853953e-05
169	0x3c00ac6d	0.0078536095
170	0x37ec4ce2	2.8169194e-05
171	0x377f5d8b	1.5220964e-05
172	0x3b990e6c	0.0046709087
173	0x38584cef	5.1570063e-05
174	0x386c66ed	5.636264e-05
175	0x389e252d	7.5409516e-05
176	0x37878595	1.6155458e-05
177	0x378b9ce0	1.6643142e-05
178	0x378ce43c	1.679558e-05
179	0x38a00ad0	7.6314085e-05
180	0x3beaec86	0.007169309
181	0x38c334c3	9.308152e-05
182	0x3a0296ec	0.00049815956
183	0x384d5eb6	4.8964015e-05
184	0x39267655	0.00015875076
185	0x3a1c6dba	0.0005967278
186	0x390f260f	0.0001365172
187	0x38132f62	3.509166e-05
188	0x3a53ef6a	0.00080846867
189	0x38f6f5f1	0.00011776004
190	0x3d3356ed	0.04378407
191	0x3ae31398	0.0017324565
192	0x387c09b3	6.0090515e-05
193	0x391d2ad5	0.00014988643
194	0x3792110b	1.7412493e-05
195	0x37574ae9	1.283244e-05
196	0x398b27da	0.00026541838
197	0x39326740	0.00017013866
198	0x3817c15f	3.6181296e-05
199	0x393aac41	0.00017802512
200	0x36dd666d	6.598237e-06
201	0x3ada7f3c	0.0016669999
202	0x392e0090	0.00016594143
203	0x37ed1152	2.8260667e-05
204	0x37ab1c5a	2.039799e-05
205	0x3a01ed76	0.0004956344
206	0x39ce0687	0.00039296245
207	0x38053153	3.1755608e-05
208	0x388d0a10	6.725278e-05
209	0x3a043e13	0.000504465
210	0x38b75edf	8.743791e-05
211	0x38f167ba	0.00011511096
212	0x3b8e692e	0.0043460345
213	0x39259b51	0.00015793486
214	0x388007fd	6.1050036e-05
215	0x3836dfba	4.3600543e-05
216	0x390be50e	0.00013341403
217	0x380aa7f7	3.3058193e-05
218	0x37b94c36	2.2089207e-05
219	0x37bf121f	2.2777413e-05
220	0x38ac6611	8.2206105e-05
221	0x37e74b32	2.7572361e-05
222	0x3723639e	9.738751e-06
223	0x37297753	1.0100967e-05
224	0x3959f8fe	0.0002078749
225	0x3def2d88	0.11678606
226	0x37b64eba	2.173275e-05
227	0x37e1b379	2.6905664e-05
228	0x3a12379d	0.0005577745
229	0x39df7ad5	0.00042625392
230	0x379f64cd	1.9001216e-05
231	0x3801dad7	3.0959807e-05
232	0x3ab898e3	0.001408365
233	0x38c1fad9	9.249681e-05
234	0x38e4661e	0.00010890908
235	0x387e8a0d	6.068689e-05
236	0x3a46db3e	0.000758577
237	0x3664f96e	3.4119835e-06
238	0x37928483	1.7466262e-05
239	0x3aa84c3a	0.00128401
240	0x39019594	0.00012358121
241	0x3904b849	0.00012657153
242	0x3951bb25	0.0002000151
243	0x37af38aa	2.0888012e-05
244	0x38b0fa72	8.438983e-05
245	0x37b81844	2.1945809e-05
246	0x3ab8b593	0.0014092199
247	0x3a935c99	0.0011242806
248	0x38cbd34d	9.719152e-05
249	0x383c5b4c	4.490772e-05
250	0x37e3f4e9	2.7174554e-05
251	0x3922fc3f	0.00015543493
252	0x3a1ceb08	0.000598595
253	0x369c83f2	4.6645227e-06
254	0x3ac1f072	0.001479639
255	0x3a2de291	0.00066331873

weight f4 [128, 256]
0	0x3d7fa6dd	0.062414993
1	0x3d5a27a3	0.053260457
2	0xbe24ab73	-0.16081028
3	0x3c6ad10b	0.014332066
4	0x3cbf59c4	0.023358233
5	0x3d9dbf0b	0.07702454
6	0xbe3074cf	-0.17232059
7	0xbe6baa60	-0.23014212
8	0xbd7248c7	-0.059151437
9	0x3d14efa4	0.03636135
10	0xbd5db2f6	-0.05412575
11	0xbd2c09d0	-0.042001545
12	0x3c41d2f0	0.011830077
13	0x3d6fb038	0.058517665
14	0xbcd9e2c8	-0.026597396
15	0xbc54c34d	-0.012986016
16	0x3ca76924	0.020435877
17	0xbc9997a4	-0.018749066
18	0xbcd0fc8f	-0.025511054
19	0x3d6b70f8	0.057480782
20	0xbcce1d08	-0.025160328
21	0x3cf7d1c3	0.03025139
22	0x3c79f0fd	0.01525521
23	0xbd0976ce	-0.033560567
24	0xbd3472b4	-0.044054702
25	0xbd598026	-0.053100727
26	0x3bbe959f	0.005816176
27	0x3b3c5a44	0.0028740326
28	0x3d4a6ffa	0.049423195
29	0x3ad6d9d4	0.0016391822
30	0x3d4cd0eb	0.050003927
31	0xbd0fffb4	-0.035155967
32	0xbc8bc730	-0.017062753
33	0x3d864d05	0.06557659
34	0x3e0c0589	0.13673986
35	0xbb078a5d	-0.0020681836
36	0x3d2f735f	0.042834636
37	0x3d0cf574	0.03441377
38	0xbe156b7b	-0.14591782
39	0x3d1210fb	0.035660725
40	0xbccc5fd7	-0.024948044
41	0xbd540076	-0.051758252
42	0xbbdab895	-0.006674836
43	0xbca8b37d	-0.0205934
44	0xbcc44e39	-0.02396308
45	0xbd640dac	-0.0556771
46	0x3de43d54	0.1114451
47	0x3e5745cd	0.2102272
48	0x3d928029	0.07153351
49	0x3ccda71a	0.025104094
50	0x3dacf293	0.08444705
51	0xbd3b11b8	-0.045671195
52	0xbd0d6267	-0.034517672
53	0x3d34d816	0.044151388
54	0x3de678a6	0.112534806
55	0x3c2df41c	0.010617282
56	0xbd0c3e20	-0.034238935
57	0x3cb577e5	0.022151897
58	0xbd551b04	-0.052027717
59	0xbd2d9655	-0.042379696
60	0xbdac0b33	-0.084005736
61	0xbca544c4	-0.020174392
62	0x3d1b2a35	0.03788205
63	0xbdd61af0	-0.10454357
64	0x3c980d4c	0.018561028
65	0xbcbd022f	-0.02307233
66	0xbd9f6d1c	-0.07784483
67	0x3b8fdf13	0.004390606
68	0x3d47e65a	0.048803665
69	0x3d97ebce	0.07418023
70	0xbc1c7d2c	-0.009551328
71	0xbd3cb1fc	-0.046068177
72	0xbcccc7db	-0.024997642
73	0xbcbe5391	-0.023233207
74	0x3cb78663	0.022402948
75	0x3ca71afb	0.020398607
76	0xbd828cf3	-0.0637454
77	0x3ddf4c70	0.10903251
78	0x3c7fd4c0	0.015614688
79	0x3d913b4e	0.070913896
80	0x3dcc04b2	0.09961833
81	0xbe286465	-0.16444547
82	0xbd1e6e46	-0.038679384
83	0xbd4d3625	-0.050100464
84	0x3cc02a5c	0.023457699
85	0xbe3feaa8	-0.18741858
86	0x3b8acd2c	0.004235884
87	0x3c614d08	0.013751276
88	0x3cfea022	0.031082217
89	0x3d55383c	0.052055582
90	0x3d41026e	0.047121458
91	0x3dbddd5f	0.09270739
92	0xbe44fa19	-0.1923603
93	0x3d7b8b6a	0.061412252
94	0x3d5716b9	0.052511904
95	0x3ddbb941	0.10728694
96	0xbd8b153a	-0.06791158
97	0xbdab8f91	-0.083769925
98	0xbb8b92f9	-0.004259464
99	0x3cd6aca2	0.026205365
100	0xbc9d2423	-0.01918227
101	0x3d6edda6	0.05831685
102	0xbaa32592	-0.001244711
103	0x3be0c2d9	0.006859165
104	0x3e9206a8	0.28520703
105	0xbbcae4a9	-0.006191809
106	0x3d40d0f8	0.047074288
107	0xbdb4aabc	-0.088216275
108	0x3c63ad1a	0.013896251
109	0xbe2b0a7d	-0.1670322
110	0xbdcb9967	-0.099413686
111	0xbd903eb8	-0.07043213
112	0x3d290b48	0.041270524
113	0xbb073d23	-0.0020635806
114	0xbddcb5b6	-0.10776846
115	0xbc01649f	-0.007897525
116	0xbb92a25f	-0.0044749225
117	0xbd229a7d	-0.039698113
118	0xbcd01012	-0.025398288
119	0x3d04f822	0.0324632
120	0x3ee63a3d	0.44966307
121	0xbc9f9caa	-0.019483883
122	0xbbf599bc	-0.007495133
123	0xbdde6b28	-0.10860282
124	0x3cda52cf	0.026650814
125	0xbdb3d93c	-0.087816685
126	0xbc3cb1a0	-0.0115169585
127	0xbc636155	-0.013878186
128	0xbcff0c02	-0.031133655
129	0x3d19abae	0.037517242
130	0x3d964ab4	0.07338467
131	0x3de0f456	0.109841034
132	0x3d0542d1	0.032534424
133	0x3a8ec04e	0.0010891051
134	0x3b816978	0.0039493404
135	0xbd101fb3	-0.03518648
136	0xbce80a2c	-0.028325163
137	0xbda2acfa	-0.07943149
138	0xbc4d59d6	-0.012533626
139	0xbd2a9195	-0.041642744
140	0xbc8bd65a	-0.017069984
141	0x3d1f2fa7	0.038863804
142	0x3d3ab478	0.045582265
143	0x3dee2c6c	0.116295666
144	0x3d9e7052	0.07736267
145	0x3e27a2e4	0.16370732
146	0xbd3ea2fa	-0.046542145
147	0xbbda1c15	-0.0066561797
148	0xbb7dbd19	-0.0038717447
149	0xbd73bba8	-0.059505135
150	0xbd225a98	-0.03963718
151	0x3d64c7cd	0.055854607
152	0x3b82b597	0.0039889324
153	0x3cbe058f	0.02319601
154	0x3d977a6c	0.07396397
155	0x3cc6c48c	0.024263643
156	0xbda378ac	-0.07982001
157	0x3c4093f7	0.011754028
158	0xbd818262	-0.06323697
159	0x3cfa9bf3	0.03059194
160	0x3c2af6de	0.010434834
161	0xbc7b418c	-0.015335452
162	0xbb6bd3a2	-0.0035984297
163	0xbc1c1bc1	-0.009528101
164	0x3d05e0be	0.032685034
165	0x3c7b80db	0.015350546
166	0xbcbe15d9	-0.023203777
167	0x3c8dbc69	0.017301755
168	0xbd298918	-0.04139051
169	0xbcc70247	-0.024293078
170	0xbd9702d6	-0.07373588
171	0x3da9efec	0.082977146
172	0xbd6a0180	-0.057130337
173	0xbc865423	-0.016397541
174	0x3cab7009	0.020927446
175	0xbc9dd96c	-0.019268714
176	0xbd2e2caa	-0.042523064
177	0x3de47cbb	0.11156603
178	0x3d0b1f8c	0.033965632
179	0x3cc4cf15	0.024024526
180	0x3ba9dbb6	0.0051836623
181	0x3d367082	0.04454089
182	0xbd8da51a	-0.06916256
183	0xbd8b7065	-0.06808547
184	0xbd644cfa	-0.055737473
185	0xbc8019e4	-0.015637346
186	0x3d03798c	0.032098338
187	0xbdb83496	-0.08994405
188	0x3db1ed21	0.08687807
189	0xbd714033	-0.058899116
190	0xbc9bbb5b	-0.019010236
191	0xbbaa8f6e	-0.0052050864
192	0x3e2ed1f8	0.17072284
193	0x3c71a314	0.0147483535
194	0xbdbbca0d	-0.091693975
195	0x3d6eebdd	0.058330406
196	0xbd32ebf2	-0.043682046
197	0xbd1358a8	-0.03597322
198	0xbca8741b	-0.020563176
199	0xbd7eb92f	-0.062188324
200	0xbdf1edb2	-0.11812915
201	0xbc96091b	-0.018314889
202	0xbd8e4d22	-0.06948306
203	0x3cab0f06	0.020881187
204	0x3d6a3401	0.0571785
205	0x3b6c6c3b	0.0036075253
206	0x39d8f5e4	0.00041381933
207	0x3cd56383	0.026048427
208	0xbcfa1b20	-0.030530512
209	0x3d0bce3a	0.03413222
210	0xbc6293a8	-0.013829149
211	0xbda857b5	-0.08219854
212	0x3bad72d9	0.005293232
213	0xbd92b106	-0.07162671
214	0x3d95135d	0.07279084
215	0xbe1b7380	-0.15180779
216	0x3b9d9087	0.004808489
217	0x3d2c3b3c	0.042048678
218	0x3d5df324	0.054186955
219	0x3e035ea2	0.12829068
220	0xbc35189b	-0.01105323
221	0xbdfea615	-0.124340214
222	0xbd2e2d8f	-0.042523917
223	0x3c720057	0.014770589
224	0x3ba39e91	0.004993268
225	0xbc867eb5	-0.01641784
226	0x3d580e38	0.052747935
227	0xbe402c0e	-0.18766806
228	0x3b386ed7	0.0028142238
229	0xbb17b142	-0.0023146425
230	0x3d1919f1	0.037378255
231	0xbc89661d	-0.016772324
232	0xbd70b2eb	-0.05876438
233	0xbce74e1b	-0.028235486
234	0x3e27fdb9	0.16405381
235	0x3dce1f59	0.10064573
236	0xbc1deaca	-0.009638498
237	0xbc58ceb3	-0.013232875
238	0xbda2d6c1	-0.07951117
239	0x3cf4f209	0.029900568
240	0xbd03c42d	-0.03216951
241	0x3dc6c17d	0.09704874
242	0x3d57c00e	0.052673392
243	0xbc6dae12	-0.014506834
244	0xbd8bdaaf	-0.0682882
245	0x3d5e2202	0.05423165
246	0xbc642d38	-0.013926797
247	0xbaae90c0	-0.0013318285
248	0x3d5cb78d	0.053885985
249	0x3cd396f8	0.025828823
250	0x3d252fb9	0.040328715
251	0xbc2d0d9d	-0.010562328
252	0xbde341bd	-0.11096523
253	0x3db310a5	0.08743409
254	0xbd0fce62	-0.03510893
255	0xbd1f8866	-0.03894844
