model/model.pkl (torch_old, 227465 bytes, 20 tensors)

weight f4 [256, 32]
0	0x3e4102b8	0.18848693
1	0xbe3fabe0	-0.18717909
2	0x3d252e74	0.040327504
3	0x3e13f9eb	0.14450805
4	0x3e08f972	0.13376406
5	0xbdf08cf1	-0.117456324
6	0xbd909695	-0.07059971
7	0xbdb50e20	-0.08840585
8	0xbd850dc9	-0.0649677
9	0xbddd93d2	-0.1081921
10	0xbd1398f8	-0.036034554
11	0x3d5669de	0.052347057
12	0xbcb4a751	-0.022052439
13	0xbdfffa74	-0.12498942
14	0x3e2e47d6	0.1701959
15	0x3e171cde	0.14757106
16	0xbe122715	-0.14272721
17	0x3d2ad400	0.041706085
18	0xbdf5353d	-0.11973045
19	0xbd512336	-0.05105897
20	0x3c9d7b72	0.019223902
21	0x3e240696	0.16018137
22	0x3dbfea6b	0.093708836
23	0x3dff633e	0.12470101
24	0xbc5c2292	-0.013435977
25	0xbd55f1ab	-0.052232426
26	0xbd6b1c80	-0.057400227
27	0xbd330d28	-0.04371372
28	0x3df40478	0.11914915
29	0xbdf481ff	-0.11938857
30	0xbd2aec55	-0.04172929
31	0x3da90188	0.08252245
32	0xbe00aa7f	-0.12565039
33	0x3dbb29ba	0.09138818
34	0x3d637c15	0.055538256
35	0xbe00a059	-0.12561168
36	0x3ce46d1e	0.027884062
37	0xbd060ab1	-0.03272504
38	0xbe0114df	-0.12605618
39	0x3e002322	0.12513402
40	0x3a45b159	0.00075413805
41	0x3e2e0305	0.1699334
42	0xbc181265	-0.009281729
43	0x3d9d622c	0.076847404
44	0xbd201ce8	-0.039090067
45	0xbdf03a02	-0.11729814
46	0xbbdf5ea4	-0.006816702
47	0x3c591ffe	0.013252256
48	0x3e244efc	0.16045755
49	0xbd54e18a	-0.051972903
50	0xbce86414	-0.028368033
51	0xbdb48c02	-0.08815767
52	0xbe038857	-0.12844978
53	0xbe080b8f	-0.13285659
54	0x3e3588eb	0.17728011
55	0x3c82788f	0.015926627
56	0x3d6d7b13	0.0579787
57	0xbc577e1f	-0.013152628
58	0xbd9354c3	-0.071939014
59	0x3df6998a	0.12041004
60	0xbe31b7ec	-0.17355317
61	0xbe0058a2	-0.1253381
62	0x3dc6a81a	0.097000316
63	0x3e215e41	0.15758611
64	0x3e031334	0.12800294
65	0xbd8efad3	-0.06981435
66	0x3e0d9276	0.13825402
67	0xbc8e310e	-0.017357375
68	0xbe027aa2	-0.12742093
69	0x3dc50ac2	0.096211925
70	0x3e10075e	0.1406531
71	0x3daac21a	0.08337803
72	0x3bf01795	0.00732703
73	0xbe4166f6	-0.18886933
74	0xbcd83979	-0.026394593
75	0xbe0c3951	-0.1369374
76	0xbdd51b99	-0.104056545
77	0xbd914f48	-0.070952
78	0x3e08ad3b	0.13347332
79	0xbda9803e	-0.082764134
80	0x3e1ee4a3	0.15516905
81	0xbdbf2579	-0.09333319
82	0xbdd5dbd5	-0.1044232
83	0x3d18077b	0.03711651
84	0x3e065de5	0.13121755
85	0x3cb48878	0.02203773
86	0xbd0152e6	-0.0315732
87	0xbdcca231	-0.09991873
88	0x3da9d1cf	0.08291971
89	0xbd56026d	-0.052248407
90	0x3e0a268c	0.13491267
91	0x3e000b16	0.12504229
92	0x3e37bc2a	0.17942873
93	0x3e5b4385	0.21412475
94	0x3e69b644	0.22823435
95	0xbba0fed1	-0.004913189
96	0xbcd2f3d6	-0.025751036
97	0x3e0ea732	0.13930967
98	0xbcb76fe2	-0.022392217
99	0x3cadef82	0.02123237
100	0x3e2d2a65	0.16910703
101	0xbe1ce6c5	-0.15322407
102	0xbdeff25f	-0.117161505
103	0x3dfa9602	0.12235643
104	0xbd8494a2	-0.06473662
105	0xbd6ca11c	-0.057770833
106	0xbe0a0708	-0.13479245
107	0x3e114a25	0.1418844
108	0x3d922ed6	0.071378395
109	0x3dc977c1	0.09837294
110	0xbbd8ad52	-0.0066124583
111	0xbdd55ece	-0.10418473
112	0x3c9d62d1	0.019212158
113	0x3d2c37de	0.042045467
114	0xbe1f4074	-0.1555193
115	0xbe161cfc	-0.14659494
116	0x3e281219	0.16413154
117	0x3d89dcda	0.06731577
118	0xbe188f18	-0.14898336
119	0xbd9fb483	-0.07798102
120	0x3dadd26f	0.08487403
121	0xbe332958	-0.1749624
122	0x3d9a15bf	0.07523679
123	0x3dde4619	0.10853214
124	0xbe3bc0c7	-0.18335257
125	0xbcf82904	-0.030292995
126	0x3e0fddef	0.14049505
127	0x3dc519e9	0.096240826
128	0x3d866a96	0.065632984
129	0x3d161aa8	0.036646515
130	0x3e383010	0.17987084
131	0xbe1ec3e5	-0.15504415
132	0xbdf9a5eb	-0.121898495
133	0xbe0a55d8	-0.1350931
134	0xbe04350c	-0.12910861
135	0x3db467d0	0.08808863
136	0x3dd99d4e	0.106257066
137	0xbda7651e	-0.081735834
138	0x3c73b7b9	0.014875346
139	0xbd92b2f4	-0.07163039
140	0x3e2e0640	0.16994572
141	0x3d4826fb	0.0488653
142	0x3d1e8e85	0.038710136
143	0xbd87f500	-0.06638527
144	0x3d485ec6	0.048918508
145	0xbe2dc0a3	-0.16968016
146	0xbd467d25	-0.04845919
147	0x3dee89c9	0.11647374
148	0x3d7a752b	0.061146896
149	0x3b06ef38	0.0020589363
150	0x3deaba10	0.1146127
151	0xbe224f4a	-0.15850559
152	0x3da3137e	0.07962702
153	0x3c22dfa0	0.009941012
154	0xbdfee01c	-0.12445089
155	0x3e19ade4	0.1500774
156	0xbdce4d58	-0.10073346
157	0x3e3045ca	0.17214122
158	0xbdb13409	-0.08652503
159	0xbb3a5a12	-0.0028435034
160	0xbdb9a251	-0.090641625
161	0x3df65b9c	0.12029192
162	0x3da7e1d7	0.081973724
163	0xbc475167	-0.012165404
164	0xbce87da2	-0.028380219
165	0xbd1804ec	-0.03711407
166	0xbd9e791c	-0.077379435
167	0xbd108a14	-0.03528793
168	0xbd8d3fda	-0.06896944
169	0x3dc3a8bb	0.09553667
170	0xbdbb99a6	-0.091601655
171	0xbd656b73	-0.056010675
172	0x3b9be170	0.004757099
173	0x3dd969c4	0.10615876
174	0xbd74f769	-0.05980626
175	0xbdf23c80	-0.11827946
176	0x3dcade8a	0.09905727
177	0xbba00509	-0.0048834127
178	0xbc356d09	-0.011073359
179	0x3dd5c737	0.10438388
180	0xbd109100	-0.035294533
181	0xbdc53fd7	-0.09631317
182	0x3e07bf28	0.13256514
183	0xbde1018d	-0.10986624
184	0x3dab091a	0.08351345
185	0x3e256c74	0.16154653
186	0x3e3feb61	0.18742134
187	0x3dd0d197	0.10196226
188	0xbe2756fb	-0.16341774
189	0xbe31a923	-0.17349677
190	0x3dd1a276	0.10236065
191	0xbe042bf2	-0.12907389
192	0x3df5d939	0.120043226
193	0xbc6e1505	-0.014531379
194	0x3e0ef1b9	0.13959397
195	0xbddeb915	-0.10875145
196	0x3ddfb04b	0.10922297
197	0xbd0c0d40	-0.034192324
198	0x3c88f4e2	0.016718332
199	0x3cc5ec8c	0.024160646
200	0x3c461eef	0.012092336
201	0xbda005f1	-0.07813633
202	0x39763d39	0.00023483195
203	0xbe04207b	-0.12903015
204	0x3cf4f6ad	0.02990278
205	0x3db60e2f	0.08889424
206	0xbce8a1eb	-0.028397521
207	0xbd675f0c	-0.05648713
208	0xbdaa3dad	-0.08312545
209	0xbd0c6b72	-0.034282155
210	0x3d1dc644	0.03851916
211	0x3e0ba5e2	0.13637498
212	0x3d50b07e	0.050949566
213	0xbd10ddb0	-0.035367668
214	0xbcabb853	-0.020961916
215	0xbd9e439b	-0.077277385
216	0x3cc0771d	0.023494298
217	0xbd416cec	-0.047223017
218	0xbd00adf2	-0.031415887
219	0x3e239ba7	0.15977345
220	0x3d4d33e0	0.0500983
221	0xbdcd18d3	-0.100145005
222	0x3dc33a18	0.09532565
223	0xbd8d6b58	-0.0690524
224	0x3dd2f899	0.103013225
225	0x3dc09693	0.0940372
226	0xbd1f10d1	-0.038834397
227	0xbd8af638	-0.06785244
228	0xbe01f7b6	-0.1269215
229	0xbdf54fee	-0.11978136
230	0xbd732eb8	-0.059370726
231	0x3e0ebb5a	0.13938656
232	0x3de3a87f	0.111161225
233	0xbd803761	-0.06260563
234	0xbc2f62f8	-0.010704748
235	0x3e48bfdf	0.19604443
236	0xbdeb09c4	-0.11476472
237	0x3e304cb2	0.17216757
238	0xbd6da44f	-0.058018025
239	0xbde0080d	-0.109390356
240	0xbcecf9a1	-0.028927626
241	0x3e0f00d8	0.13965166
242	0xbe669fb8	-0.22521865
243	0xbdaf54bd	-0.085610844
244	0x3db81105	0.08987621
245	0xbb9b1469	-0.0047326577
246	0xbce39152	-0.027779255
247	0x3e24679f	0.16055153
248	0x3c3279db	0.01089331
249	0xbce4d662	-0.027934257
250	0x3c5fbef8	0.01365637
251	0x3d970d4f	0.07375585
252	0xbdb416ea	-0.08793433
253	0xbcaa9d9b	-0.020827105
254	0x3dc71393	0.0972053
255	0xbd568dd1	-0.05238134

bias f4 [256]
0	0xbd1b8dad	-0.03797691
1	0xbd48e7e1	-0.049049262
2	0xbddf5134	-0.1090416
3	0x3cd7036f	0.026246754
4	0x3e269781	0.16268732
5	0xbe1c62c6	-0.15272054
6	0x3d892ccf	0.06698
7	0xbe0ee221	-0.13953449
8	0x3cd6019d	0.026123816
9	0xbdffc705	-0.12489132
10	0x3dbfea5a	0.09370871
11	0xbe1b4c06	-0.1516572
12	0xbe2f198c	-0.17099589
13	0x3df3c6e1	0.119031675
14	0x38df18ac	0.00010638064
15	0x3e2cb5e4	0.16866261
16	0x3df9c287	0.12195306
17	0x3d9821d6	0.07428329
18	0x3e212118	0.1573528
19	0x3d97bf2d	0.07409511
20	0x3a976374	0.0011550025
21	0x3e31618f	0.17322372
22	0x3da9b473	0.08286371
23	0xbce4ca0d	-0.027928377
24	0x3da10f83	0.07864287
25	0xbdd0e946	-0.102007434
26	0xbdd6eec5	-0.104947604
27	0xbc98b6bf	-0.018641828
28	0xbc59c8f8	-0.013292544
29	0xbdb46930	-0.088091254
30	0xbe203ab4	-0.15647393
31	0xbd87fc5b	-0.0663993
32	0xbe09e240	-0.13465214
33	0xbddae0eb	-0.10687431
34	0xbd10fe61	-0.035398845
35	0xbd460f69	-0.04835454
36	0xbe351c80	-0.17686653
37	0x3d9291da	0.07156725
38	0x3e1b0c44	0.15141398
39	0x3da4a998	0.0804016
40	0xbd16a315	-0.03677662
41	0xbdc35279	-0.09537215
42	0x3de18865	0.11012343
43	0x3dbd83e5	0.092536725
44	0xbdd4f633	-0.10398521
45	0xbd363493	-0.044483732
46	0x3e095bb1	0.13413884
47	0xbe0263a6	-0.12733325
48	0x3dca7443	0.098854564
49	0x3c8b7fd1	0.017028721
50	0xbd02d4ee	-0.031941347
51	0x3d7b8f0f	0.06141573
52	0xbe03f874	-0.12887746
53	0x3cd31d41	0.025770785
54	0x3e141b3d	0.14463516
55	0xbb4b893a	-0.0031057135
56	0xbd93eb5d	-0.07222626
57	0x3be4441e	0.006966128
58	0x3e0d1dc1	0.13780881
59	0xbbbc5f46	-0.005748662
60	0xbdf4b317	-0.11948221
61	0xbe10cf62	-0.1414161
62	0x3e0ceead	0.13762923
63	0x3da4e384	0.08051208
64	0x3dd2167c	0.10258195
65	0xbe262d83	-0.16228299
66	0xbda8d622	-0.082439676
67	0xbdc7bbde	-0.0975263
68	0x3e104b0b	0.14091127
69	0xbd80c23a	-0.06287046
70	0xbdacc9a0	-0.084368944
71	0x3c17c5a6	0.009263432
72	0xbd968bb1	-0.07350863
73	0x3d7a7121	0.061143044
74	0x3d211344	0.039325014
75	0x3e146a1f	0.14493607
76	0x3dece231	0.1156658
77	0xbe10675f	-0.14101933
78	0x3db3fde9	0.08788664
79	0xbe0fca27	-0.14041959
80	0x3dbf685c	0.09346077
81	0xbd845942	-0.06462337
82	0xbdaa97cc	-0.08329734
83	0xbe29bbf1	-0.165756
84	0x3d01b361	0.03166521
85	0xbdec747d	-0.11545656
86	0x3ca62820	0.020282805
87	0x3d59a170	0.053132474
88	0xbdfe5313	-0.12418189
89	0x3d98be6d	0.07458196
90	0x3dbbc3a8	0.09168178
91	0x3e127455	0.1430219
92	0x3c930229	0.017945366
93	0xbe1e172e	-0.1543853
94	0x3dab32e9	0.0835932
95	0xbdf6b67e	-0.12046526
96	0xbd76f77a	-0.060294606
97	0x3c2575d7	0.010098896
98	0xbd0cec95	-0.03440531
99	0x3d1a77a7	0.037711766
100	0x3d2a79f0	0.041620195
101	0xbd8cff3a	-0.06884618
102	0x3d332124	0.043732777
103	0x3d33d34d	0.043902684
104	0x3c86c847	0.016452922
105	0x3e0df12e	0.13861534
106	0x3ced84c0	0.028993964
107	0x3d69550c	0.056965873
108	0x3d8904c8	0.06690365
109	0xbe0bb7d9	-0.13644351
110	0xbdfe99d6	-0.124316856
111	0x3c830b72	0.015996668
112	0xbcddba31	-0.027066322
113	0x3e03814f	0.12842296
114	0xbdec829c	-0.11548349
115	0x3e145288	0.14484608
116	0xbdbcb402	-0.09214021
117	0x3e0a8e8a	0.13530937
118	0x3bd593e8	0.006517876
119	0x3d9cff86	0.07665925
120	0x3e052347	0.13001738
121	0x3b88e603	0.00417781
122	0xbdddfc70	-0.10839164
123	0xbdc872bd	-0.097875096
124	0xbe4137a2	-0.18868878
125	0x3d2c0ebc	0.04200624
126	0x3c819af5	0.01582096
127	0xbd5c93b9	-0.053851817
128	0x3e00db68	0.12583697
129	0xbd0ea3d4	-0.034824207
130	0x3de7b5d0	0.11313975
131	0xbd81f093	-0.06344714
132	0x3e2fb68d	0.17159481
133	0x3dc277eb	0.09495529
134	0xbe01c124	-0.12671334
135	0xbd1ec126	-0.03875842
136	0xbe1029b2	-0.14078405
137	0xbaa0bff0	-0.0012264233
138	0xbdb6a74f	-0.0891863
139	0xbe23efec	-0.16009492
140	0x3dfdfbde	0.124015555
141	0xbe08d670	-0.13363051
142	0xbe252efb	-0.16131203
143	0xbd804cd2	-0.06264652
144	0xbc4976a8	-0.012296356
145	0x3c06dcc6	0.008231347
146	0x3ce45076	0.027870398
147	0xbdde5275	-0.10855571
148	0x3db1fa8c	0.08690366
149	0xbdbae127	-0.09124976
150	0x3e34d940	0.17661
151	0xbddbb7da	-0.10728426
152	0xbc82f98a	-0.01598813
153	0xbcd5c386	-0.02609421
154	0xbdea826f	-0.114506595
155	0x3e38ffa9	0.18066277
156	0xbdbea34f	-0.093084924
157	0xbd28d351	-0.041217152
158	0x3e016080	0.12634468
159	0xbe0e054f	-0.13869213
160	0x3b07d924	0.002072879
161	0xbd5c5b2f	-0.053797897
162	0x3b0fd0ec	0.0021944596
163	0x3d2faf4f	0.042891797
164	0x3e201e2f	0.15636514
165	0x3c4c6bd9	0.012476885
166	0xbde982dc	-0.114019126
167	0xbe2f9ef6	-0.17150483
168	0x3d689748	0.056784898
169	0x3e090223	0.13379721
170	0x3d1036bf	0.03520846
171	0x3c463131	0.012096689
172	0x3d36724a	0.04454259
173	0x3be45f06	0.0069693355
174	0x3e07adb6	0.13249859
175	0xbe044dec	-0.1292035
176	0x3c255834	0.01009183
177	0xbe0683dd	-0.1313624
178	0x3e1f55ea	0.15560117
179	0x3e0b8ca7	0.13627873
180	0xbc369d0c	-0.011145841
181	0xbcabe383	-0.02098251
182	0xbdba3799	-0.09092636
183	0xbd1c0c35	-0.03809758
184	0xbe1b7722	-0.15182164
185	0xbdc39fba	-0.0955195
186	0xbdbf100a	-0.09329231
187	0xbd2b3b79	-0.041804764
188	0xbde5b27a	-0.11215682
189	0xbd5e4640	-0.054266214
190	0x3cc7bc29	0.024381714
191	0x3d938b16	0.07204263
192	0x3d75d3ba	0.06001637
193	0xbd8cb336	-0.06870119
194	0xbd781ffd	-0.06057738
195	0xbd62ffb2	-0.05541963
196	0xbd53c4d3	-0.051701378
197	0xbdee3203	-0.11630633
198	0xbc3643fd	-0.011124608
199	0x3cd6cbfc	0.026220314
200	0xbe225f04	-0.15856558
201	0xbd999796	-0.07499616
202	0xbd650f7c	-0.05592297
203	0x3c05ed12	0.008174198
204	0xbc2968b7	-0.010339907
205	0x3c94cf59	0.018165277
206	0xbe330908	-0.17483914
207	0x3d87cd8f	0.06631004
208	0x3de91452	0.11380829
209	0xbcb9791c	-0.022640757
210	0xbd90131f	-0.07034897
211	0xbe29c826	-0.16580257
212	0xbe20bc9a	-0.15696946
213	0xbe2f6c13	-0.17131071
214	0x3c608d29	0.01370553
215	0xbd995276	-0.07486431
216	0xbcd6708f	-0.026176719
217	0x3d570a30	0.05249995
218	0xbd1c8749	-0.038214955
219	0x3d996ea1	0.07491804
220	0xbe136ae7	-0.14396249
221	0xbe2d5453	-0.16926698
222	0x3e136f8e	0.14398023
223	0xbe010dad	-0.12602873
224	0xbca7058f	-0.020388393
225	0x3dc1954b	0.094523035
226	0xbab77362	-0.0013996179
227	0xbe102a8e	-0.14078733
228	0xbddadbe5	-0.10686473
229	0x3e0245ac	0.1272189
230	0x3dbcc8e7	0.092180066
231	0x3b195ab1	0.0023400004
232	0xbdb3b65a	-0.08775015
233	0x3b8db090	0.0043240264
234	0xbce9e448	-0.028551236
235	0xbcc43518	-0.023951098
236	0xbd39d460	-0.045368552
237	0x3cc36895	0.02385358
238	0x3e10493c	0.14090437
239	0x3df70193	0.12060847
240	0x3be7f1e3	0.0070783957
241	0x3cc223e2	0.02369875
242	0x3da227c6	0.079177424
243	0x3e166fb7	0.14691053
244	0x3cc976e7	0.02459283
245	0x3c96902a	0.01837929
246	0x3e2eb1ba	0.17059985
247	0xbe11900d	-0.14215107
248	0xbe2eca1b	-0.17069285
249	0xbd88ebba	-0.06685586
250	0xbe347fd2	-0.17626885
251	0xbd444521	-0.04791749
252	0xbd58b0e5	-0.052903075
253	0xbcb67711	-0.022273572
254	0xbdb2df53	-0.08734002
255	0xbdce89c6	-0.10084872

weight f4 [256]
0	0x3f3a8ccb	0.72871083
1	0x3ee43822	0.44574076
2	0x3f2ac94a	0.6671339
3	0x3ea74f74	0.32677805
4	0x3f3be05a	0.7338921
5	0x3f00d312	0.5032207
6	0x3f109180	0.56472015
7	0x3eb05398	0.34438777
8	0x3ea10403	0.31448373
9	0x3ecf1a1a	0.404496
10	0x3f65f956	0.8983358
11	0x3dfdc41c	0.123909205
12	0x3d8a9b3a	0.06767888
13	0x3f4aee99	0.7927032
14	0x3e2475f7	0.16060625
15	0x3edde45a	0.4333828
16	0x3f14e9a8	0.5816903
17	0x3f1df052	0.61694825
18	0x3edfc7da	0.43707162
19	0x3f0911da	0.53542864
20	0x3f6f3228	0.9343591
21	0x3f36af3d	0.7136114
22	0x3f0c7b48	0.5487561
23	0x3f2bc3e1	0.6709576
24	0x3f3f1aa9	0.74650055
25	0x3eeb6137	0.45972607
26	0x3f4c02aa	0.79691565
27	0x3de03b5b	0.10948821
28	0x3f0815a2	0.5315801
29	0x3f02f0dd	0.5114878
30	0x3e9cc968	0.3062241
31	0x3f071631	0.52768236
32	0x3f5285cf	0.82235426
33	0x3e87257c	0.26395786
34	0x3eed65ee	0.4636683
35	0x3f0405df	0.5157146
36	0x3ea3297f	0.31867597
37	0x3f5a5f0e	0.8530129
38	0x3dca226b	0.09869846
39	0x3e553281	0.20820047
40	0x3f6714ad	0.90265924
41	0x3f54de6b	0.8315188
42	0x3f56786d	0.83777505
43	0x3f700cb4	0.93769383
44	0x3eec7168	0.46180272
45	0x3f30866b	0.68955106
46	0x3f53d0db	0.82740563
47	0x3ebf02ab	0.37306723
48	0x3e879ef6	0.26488465
49	0x3f6b414b	0.91896504
50	0x3eb07f28	0.34472013
51	0x3e2a2493	0.16615514
52	0x3f7779ce	0.96670234
53	0x3ea8df09	0.32982662
54	0x3d9a0bd4	0.07521787
55	0x3ed7b8ce	0.42133182
56	0x3f0eef2e	0.5583371
57	0x3e445f9e	0.191771
58	0x3e1db6d3	0.15401773
59	0x3f5b3900	0.8563385
60	0x3f6e83e5	0.93170005
61	0x3e7b10ec	0.24518174
62	0x3db03cc0	0.08605337
63	0x3f0c1e56	0.5473379
64	0x3f6cecf5	0.9254907
65	0x3f0917c1	0.5355187
66	0x3f614e94	0.88010526
67	0x3f1079a4	0.5643561
68	0x3e169306	0.14704522
69	0x3e61a44e	0.22035334
70	0x3f69dfa2	0.9135686
71	0x3ec2710d	0.37976876
72	0x3e70193a	0.23447123
73	0x3f100777	0.5626139
74	0x3e98e19a	0.2985962
75	0x3eedbfbd	0.46435347
76	0x3f077e10	0.5292673
77	0x3f75acd1	0.9596682
78	0x3f22259e	0.6333865
79	0x3f794810	0.97375584
80	0x3f1c0d51	0.6095782
81	0x3e4047bb	0.18777363
82	0x3f52ed51	0.82393366
83	0x3dfcba4a	0.12340219
84	0x3e12f54e	0.14351389
85	0x3ddfefe1	0.10934425
86	0x3f585b9b	0.8451478
87	0x3f44e263	0.7690794
88	0x3f55358a	0.8328482
89	0x3f3b92d4	0.73270917
90	0x3f0f2b44	0.55925393
91	0x3f07a6ce	0.529889
92	0x3f746559	0.95467144
93	0x3f5ae0ee	0.85499465
94	0x3e34ec8d	0.17668362
95	0x3e2bae84	0.16765791
96	0x3f714c2b	0.9425685
97	0x3f6c0b14	0.92204404
98	0x3e1cb9e3	0.15305285
99	0x3f6f56d9	0.93491894
100	0x3f6a13ba	0.9143635
101	0x3efa7009	0.489136
102	0x3f2718f0	0.65272427
103	0x3f60613b	0.8764836
104	0x3e9f87aa	0.3115819
105	0x3dcabb35	0.09898988
106	0x3f0a4e78	0.54025984
107	0x3f69c975	0.91323024
108	0x3dedbd1f	0.116083376
109	0x3f0aa768	0.5416169
110	0x3f13123e	0.5744971
111	0x3eca9bb9	0.39571932
112	0x3ede4a88	0.43416238
113	0x3f46643c	0.77496696
114	0x3e18a9f0	0.14908576
115	0x3e48b72e	0.19601128
116	0x3f6bf62c	0.92172503
117	0x3da15f5f	0.07879519
118	0x3f5d65aa	0.8648325
119	0x3f67a092	0.90479386
120	0x3f1e0817	0.61731094
121	0x3f1555b7	0.58333915
122	0x3e0df3b5	0.13862498
123	0x3f6061ed	0.8764942
124	0x3ed4cff3	0.41564903
125	0x3f1097a1	0.5648137
126	0x3e97b8b3	0.29633102
127	0x3f36a992	0.71352494
128	0x3ef796fd	0.48357382
129	0x3eb17bd5	0.3466479
130	0x3df3de18	0.119075954
131	0x3e297eb1	0.16552235
132	0x3f3b20f2	0.73097146
133	0x3f039384	0.51396966
134	0x3edf7ef2	0.4365154
135	0x3e515b78	0.20445049
136	0x3e64aae1	0.2233081
137	0x3d6b1ddb	0.05740152
138	0x3d6141e0	0.054994464
139	0x3e9f5738	0.3112123
140	0x3f255c23	0.64593714
141	0x3f2ca9a4	0.6744635
142	0x3ed27f10	0.41112566
143	0x3f451da6	0.76998365
144	0x3f772e9f	0.96555513
145	0x3f01099a	0.50405276
146	0x3f330292	0.69925797
147	0x3eaa8fc7	0.33312818
148	0x3f178af6	0.5919641
149	0x3ed5a4df	0.4172735
150	0x3edbca13	0.42927608
151	0x3ef8346d	0.48477498
152	0x3f6a0d6e	0.9142674
153	0x3e63c40c	0.22242755
154	0x3ed0c554	0.4077555
155	0x3f20e59d	0.6285036
156	0x3e5358f4	0.20639402
157	0x3ea7a6bf	0.32744405
158	0x3f6ae590	0.91756535
159	0x3f4ba4a5	0.795481
160	0x3f70c897	0.94056076
161	0x3ea54d20	0.32285404
162	0x3e66c920	0.2253766
163	0x3ecd41cb	0.4008926
164	0x3f198332	0.59965813
165	0x3d887c04	0.06664279
166	0x3dfc1cd4	0.12310186
167	0x3efb9cb5	0.49142995
168	0x3f1dcce7	0.6164078
169	0x3dfffcf1	0.124994166
170	0x3e7349b7	0.23758589
171	0x3f35aa5b	0.70963067
172	0x3e5c96ef	0.21541952
173	0x3e723390	0.23652482
174	0x3e6896a1	0.2271371
175	0x3ed8b99f	0.42329118
176	0x3e5c9779	0.21542157
177	0x3da97c13	0.082756184
178	0x3f2d4907	0.67689556
179	0x3f5b1d13	0.8559124
180	0x3ee736a6	0.4515888
181	0x3db5f0d5	0.08883826
182	0x3ec2ccc1	0.3804684
183	0x3f0a85bb	0.54110307
184	0x3f05289f	0.5201511
185	0x3f1e0a07	0.6173405
186	0x3f2c5cab	0.673289
187	0x3f6bab60	0.9205837
188	0x3ef72f35	0.48278204
189	0x3e3b05f9	0.18263997
190	0x3f5f8df7	0.87325996
191	0x3d62e1d9	0.055391166
192	0x3f3ff628	0.7498498
193	0x3dffae69	0.12484438
194	0x3f1b5cc9	0.60688454
195	0x3f39b0b1	0.72535235
196	0x3e91a366	0.28444976
197	0x3f790e19	0.97287136
198	0x3f3c9c8c	0.7367637
199	0x3eba0323	0.36330518
200	0x3f2e5a0f	0.6810617
201	0x3e19f838	0.15036094
202	0x3dd9f749	0.10642869
203	0x3f5a3c1f	0.8524799
204	0x3f412738	0.7545047
205	0x3f122adc	0.5709665
206	0x3f398615	0.7247022
207	0x3e4915fa	0.1963729
208	0x3ea3a462	0.31961352
209	0x3f52188d	0.8206871
210	0x3f16731c	0.5876939
211	0x3f781ea3	0.9692175
212	0x3f06a562	0.52596104
213	0x3ec4fbda	0.38473397
214	0x3f5e0d3d	0.8673895
215	0x3f161cd1	0.5863772
216	0x3e20b91e	0.15695617
217	0x3f1b5f2f	0.60692114
218	0x3ec3b8db	0.3822697
219	0x3f22c27a	0.63578
220	0x3f05961f	0.5218219
221	0x3f451f40	0.7700081
222	0x3da54ce8	0.08071309
223	0x3e1618c8	0.14657891
224	0x3f33d7b5	0.7025102
225	0x3f316c48	0.6930585
226	0x3f162a72	0.58658516
227	0x3cec59bd	0.028851384
228	0x3f51f2dd	0.82011205
229	0x3ed581de	0.41700643
230	0x3eb31b4f	0.34981772
231	0x3ed42110	0.41431475
232	0x3f5432a1	0.82889754
233	0x3e8f5831	0.27996972
234	0x3f2ab50f	0.66682523
235	0x3dedf575	0.11619083
236	0x3f509ffd	0.8149412
237	0x3eaa0d7a	0.33213407
238	0x3d88cc1b	0.06679555
239	0x3f2fe712	0.6871196
240	0x3f71f433	0.94513243
241	0x3ea254e9	0.31705406
242	0x3edddf23	0.43334302
243	0x3ef414e9	0.47672203
244	0x3f3173d0	0.6931734
245	0x3eae1f4e	0.3400826
246	0x3d0489cd	0.03235798
247	0x3f3b0ed2	0.7306949
248	0x3e0c95e9	0.13729061
249	0x3e4a16bc	0.19735235
250	0x3eef6c12	0.4676214
251	0x3de3bc0a	0.1111985
252	0x3f0bcca7	0.5460915
253	0x3cb3c38c	0.02194383
254	0x3e4fbd9c	0.20287174
255	0x3eb04d9e	0.34434217

bias f4 [256]
0	0x3d3a97b3	0.045554828
1	0x3c910302	0.01770163
2	0x3d01e5e9	0.0317134
3	0x3d146afb	0.036234837
4	0x3dc9973d	0.098432995
5	0x3ddd133d	0.10794685
6	0x3be2c2b9	0.0069201854
7	0xbc844c48	-0.016149655
8	0x3e2e49eb	0.17020385
9	0xbcc27324	-0.023736544
10	0xbc208480	-0.009797215
11	0x3d9eee8e	0.077603444
12	0x3d90cdc9	0.070705004
13	0xbbc5fac8	-0.0060418583
14	0x3d1b1744	0.037863985
15	0xbcda301d	-0.02663427
16	0xbd5900e4	-0.052979365
17	0xbc01704e	-0.007900311
18	0x3db5c6f7	0.0887584
19	0xbbbd0f9f	-0.0057696844
20	0x3d5fb327	0.054614212
21	0xbbcf8503	-0.006332995
22	0x3cde23a1	0.027116599
23	0xbd6c0a82	-0.05762721
24	0x3c89729e	0.016778287
25	0xbb870aa6	-0.0041211424
26	0x3d49ccbf	0.049267527
27	0xbd80803e	-0.0627446
28	0xbca72867	-0.020405008
29	0xbd349d02	-0.044095047
30	0xbc49243a	-0.0122767035
31	0x3c8e21ce	0.017350104
32	0xbb0fcbee	-0.002194162
33	0x3d3cbecd	0.0460804
34	0x3ea93715	0.33049837
35	0xbb90f610	-0.004423864
36	0xbc2f80e8	-0.010711886
37	0x3ba0594e	0.0048934584
38	0xbc9a8075	-0.018860081
39	0x3e009076	0.12555107
40	0x3d0da9a9	0.03458563
41	0xbc179540	-0.009251893
42	0x3d5c9396	0.053851686
43	0xbd441108	-0.047867805
44	0x3ce91ffa	0.02845763
45	0x3cbbdb82	0.022931818
46	0x3d6a97d7	0.057273712
47	0xbde5e7c2	-0.11225845
48	0x3de22e7e	0.11044024
49	0x3ce824b1	0.028337808
50	0x3dab07c1	0.08351088
51	0xbc9cbdef	-0.019133536
52	0x3d43c387	0.04779389
53	0xbc98931a	-0.018624831
54	0x3de1183b	0.1099095
55	0x3d397194	0.045274332
56	0x3d382d90	0.044965327
57	0x3c14f21c	0.0090909265
58	0x3def342a	0.116798714
59	0xbd298d62	-0.0413946
60	0xbd1e4913	-0.038643908
61	0x3d83374d	0.06407032
62	0xbdd703ac	-0.10498747
63	0xbcb97314	-0.022637881
64	0x3d10866f	0.035284456
65	0xbcaed914	-0.021343745
66	0x3cc60ea3	0.024176901
67	0xbc603167	-0.013683653
68	0x3dd3eca0	0.10347867
69	0x3c13bcfb	0.009017224
70	0xbd117710	-0.035513937
71	0x3dfbbb98	0.1229164
72	0x3d9ce625	0.07661084
73	0x3ce287e8	0.027652696
74	0x3d9d965e	0.07694696
75	0xbcaee5bc	-0.02134978
76	0xbcf9dd0c	-0.030500911
77	0xbd2e849f	-0.042606946
78	0xbbcd822b	-0.0062716207
79	0x3d51d782	0.051230915
80	0x3e1b9489	0.1519338
81	0xbae94a9c	-0.0017798725
82	0x3d25265d	0.04031979
83	0xbcb44e6a	-0.022010047
84	0x3d79acc7	0.06095579
85	0x3a93bd8c	0.0011271699
86	0xbc48ac66	-0.012248134
87	0x3cf6c506	0.030123245
88	0xbd6c3ffd	-0.05767821
89	0x3d14c347	0.036319043
90	0xbb166ae6	-0.00229519
91	0xbc0d25dc	-0.008614983
92	0xbd240572	-0.040044256
93	0xbb104113	-0.0022011444
94	0xbe003ff8	-0.12524402
95	0x3d93c07e	0.07214449
96	0xbdb9af14	-0.090665966
97	0x3ceadca1	0.028669657
98	0x3d4d6805	0.05014803
99	0x3d055ca1	0.03255904
100	0x3d1b630b	0.03793625
101	0x3a663f67	0.00087832514
102	0x3d8061dc	0.06268665
103	0xbcfa90b5	-0.03058658
104	0xbd1003fb	-0.035160046
105	0x3dcf388f	0.101182096
106	0xbd2a1fd6	-0.041534267
107	0xbd13f881	-0.036125664
108	0x3cac3785	0.021022568
109	0x3dc9b47d	0.098488785
110	0x3d48ac18	0.048992246
111	0x3cd7e0b1	0.026352258
112	0x3d1d8483	0.03845645
113	0xbd2d9711	-0.042380396
114	0xbcc523f6	-0.024065
115	0x3e36658d	0.17812176
116	0x3d253f3a	0.0403435
117	0x3cecbd93	0.02889899
118	0xbc999485	-0.018747577
119	0xbbee8806	-0.007279399
120	0xbcd24cc5	-0.025671372
121	0x3e40907c	0.18805116
122	0x3d5a2462	0.053257354
123	0xbccae2c8	-0.02476634
124	0x3d5ce3ce	0.05392819
125	0x3c9e8166	0.019348811
126	0x3c7e8eed	0.015537006
127	0x3e12cca9	0.14335884
128	0x3d1c239b	0.038119894
129	0x3c37ea60	0.011225313
130	0x3c990e44	0.01868356
131	0xbab3d1dd	-0.001371916
132	0xbd887c50	-0.06664336
133	0x3cb1e5ae	0.021715965
134	0x3e0bffeb	0.13671844
135	0x3dbb6192	0.091494694
136	0x3d609267	0.05482712
137	0xbd9c6e4b	-0.07638224
138	0x3d73f99e	0.059564225
139	0xbc376455	-0.011193355
140	0xbde89775	-0.11357013
141	0xbcf5682a	-0.029956896
142	0x3a96783b	0.0011479923
143	0x3b8d9b53	0.0043214946
144	0x3d098af4	0.03357978
145	0x3bae41cc	0.005317902
146	0xbbac0e5f	-0.0052507366
147	0x3d42038a	0.047366656
148	0x3c84a503	0.016191965
149	0x3c68a0ff	0.014198541
150	0xbcabb227	-0.020958973
151	0x3d57b75a	0.052665092
152	0x3c3e018a	0.011597047
153	0x3d6aa359	0.057284687
154	0x3cb9d415	0.022684136
155	0x3bf95651	0.0076091667
156	0x3c039783	0.008031729
157	0x3e051388	0.12995732
158	0x3df736e1	0.12071014
159	0x38b9b486	8.8551125e-05
160	0x3c8b20e5	0.016983459
161	0xbc7f7c4a	-0.015593598
162	0x3d7332ca	0.059374608
163	0x3d6f6693	0.05844743
164	0xbd81914c	-0.06326541
165	0xbcf34dca	-0.029700179
166	0x3da2bb80	0.07945919
167	0xbd93b509	-0.07212264
168	0x3ac7c08d	0.001523988
169	0x3dd975db	0.10618182
170	0x3cbe9562	0.02326459
171	0x3d9a0e3c	0.07522246
172	0xbd73e2c2	-0.059542425
173	0xbd251d5f	-0.040311214
174	0x3dc9f383	0.09860899
175	0x3afad0c7	0.0019135707
176	0xbdb4e48a	-0.08832653
177	0x3d3f392d	0.046685386
178	0x3dda9c8d	0.10674391
179	0x3e0acc38	0.13554466
180	0x3d082bfa	0.033245064
181	0xbd18627d	-0.0372033
182	0x3dbcfb34	0.09227601
183	0x3d3dba4a	0.046320237
184	0xbc0a934b	-0.008457969
185	0xbd566c66	-0.05234947
186	0xbc5c06dc	-0.01342937
187	0xbb0d45a3	-0.00215564
188	0x3d0ff2e2	0.03514374
189	0x3d056939	0.03257105
190	0x3d587bf9	0.052852605
191	0x3c1a993d	0.009435949
192	0x3b6431d3	0.0034819737
193	0x3db8c568	0.09022027
194	0xbcd5205e	-0.02601641
195	0xbc788198	-0.015167616
196	0x3ce90038	0.028442487
197	0x3d64b6cb	0.055838387
198	0x3d78c13b	0.060731154
199	0x3de2ef40	0.110807896
200	0xba953957	-0.0011384886
201	0x3da80681	0.082043655
202	0x3d856b68	0.06514627
203	0xbd3665e8	-0.04453078
204	0x3b11b772	0.0022234586
205	0xbd8426db	-0.064527236
206	0x3c6b7963	0.014372203
207	0x3c917482	0.01775575
208	0xbd3a5c11	-0.045497958
209	0xbd51e8bb	-0.05124734
210	0x3d0951c2	0.033525236
211	0x3d0db85b	0.034599643
212	0xbb96d535	-0.004603053
213	0x3d2dea1c	0.042459592
214	0x3daf4390	0.085578084
215	0x3d9c5ba0	0.076346636
216	0x3d4f926b	0.050676744
217	0x3b3aa306	0.0028478517
218	0x3b4f5415	0.003163581
219	0x3c65e9e7	0.014032817
220	0xbc0b7563	-0.008511874
221	0x3ce4371f	0.027858315
222	0x3cbbad1e	0.022909697
223	0xbbb71d92	-0.005588242
224	0x3cea1462	0.028574172
225	0xbd89fca7	-0.06737643
226	0xbd8a79f9	-0.06761546
227	0x3c3e480b	0.011613856
228	0xbcd1dedf	-0.025618969
229	0xbd817818	-0.06321734
230	0x3c20c5f6	0.009812823
231	0x3cbf2aef	0.023335902
232	0xbd402816	-0.04691323
233	0x3d012688	0.031530887
234	0x3d2bd7b1	0.041953746
235	0xbd02f22a	-0.031969227
236	0x3c271914	0.01019885
237	0x3c50046b	0.012696366
238	0xbde2a63d	-0.11066864
239	0x3cab11f7	0.02088259
240	0x3be51eec	0.0069922116
241	0x3d915f29	0.070982285
242	0xbc22c5ab	-0.009934823
243	0x3dc1c747	0.09461837
244	0x3cdb6a4b	0.026784083
245	0x3dd3baa2	0.10338332
246	0x3be9bf58	0.0071334057
247	0x3d049a73	0.032373857
248	0xba607dfc	-0.0008563695
249	0x3d3f08a9	0.04663912
250	0xbc336b73	-0.010950911
251	0xbd32f792	-0.043693133
252	0xbdaaec52	-0.08345856
253	0xba78ceb2	-0.0009491249
254	0xba516ec8	-0.0007989225
255	0x3d9e36ee	0.07725321

running_mean f4 [256]
0	0xbca074e9	-0.019586997
1	0xbd7241ee	-0.059144907
2	0x3e244895	0.16043313
3	0x3ca5c376	0.020234805
4	0x3e38d942	0.18051627
5	0xbe1cd21b	-0.15314524
6	0x3de87791	0.113509305
7	0xbdeb3086	-0.114838645
8	0x3d11f93f	0.03563809
9	0xbdc1d702	-0.094648376
10	0x3e12c4a3	0.14332823
11	0xbe0d2a66	-0.13785705
12	0xbe658e04	-0.22417456
13	0x3d2d1d87	0.042264488
14	0x3da06bff	0.078330986
15	0x3e300f19	0.1719326
16	0x3e804ac1	0.25057033
17	0x3ef8af5a	0.48571283
18	0x3e290c83	0.16508679
19	0x3ce9fde0	0.02856344
20	0xbc058f89	-0.008151897
21	0x3cbe6e5f	0.023245988
22	0x3db258c4	0.08708337
23	0xbd041ee9	-0.03225604
24	0x3db43089	0.0879832
25	0xbd73adc7	-0.0594919
26	0xbddd4fc6	-0.10806231
27	0xbd09a2bc	-0.03360246
28	0x3c7d3661	0.0154548595
29	0xbde5b5dc	-0.112163275
30	0xbe4269db	-0.18985693
31	0x3dfc4bb8	0.1231913
32	0xbdc812e2	-0.097692266
33	0xbde388ff	-0.11110114
34	0xbd11e09f	-0.035614606
35	0xbd67c71b	-0.056586366
36	0xbe7b2eb2	-0.24529532
37	0x3cd448ee	0.025913682
38	0x3e2f7c45	0.17137249
39	0x3da2d8eb	0.0795153
40	0xbd44ea5d	-0.04807507
41	0xbd8c27dc	-0.0684354
42	0x3dc6ea8c	0.09712705
43	0x3d88f841	0.06687976
44	0xbdbe1aa9	-0.09282429
45	0xbd91b891	-0.071152814
46	0x3e0877b8	0.13326919
47	0xbe10838e	-0.14112684
48	0x3dc6bcd8	0.09703988
49	0x3e509656	0.20369849
50	0xbd00a892	-0.03141076
51	0x3e50f32f	0.20405267
52	0x3e73f772	0.23824862
53	0x3d2b3421	0.04179776
54	0x3e2175e6	0.15767631
55	0x3cc39547	0.023874892
56	0xbd9867f9	-0.07441706
57	0x3d4d668d	0.05014663
58	0x3e122e5e	0.142755
59	0xbc719cc2	-0.014746847
60	0xbe0baa0c	-0.13639086
61	0x3d9ecdf1	0.07754124
62	0x3e22d30d	0.15900822
63	0x3cca7af4	0.024716832
64	0xbcf036f7	-0.029323084
65	0xbe34266a	-0.17592779
66	0xbdb05445	-0.08609823
67	0x3d47d539	0.04878733
68	0x3e28b50b	0.16475312
69	0x3d84bbea	0.06481154
70	0x3e0a68cd	0.13516541
71	0x3cc95461	0.024576368
72	0xbe0ab39b	-0.13545077
73	0x3d9506cc	0.07276687
74	0x3cd15c88	0.025556818
75	0x3cd82bb6	0.02638803
76	0x3e1af68a	0.1513311
77	0xbe490e32	-0.19634321
78	0xbd91e8dc	-0.071244925
79	0xbe1dde58	-0.15416849
80	0x3db574d0	0.08860171
81	0xbd41361a	-0.047170736
82	0xbdba2a36	-0.09090082
83	0xbda3efad	-0.08004699
84	0x3da58da6	0.08083658
85	0xbdc1f9a8	-0.09471446
86	0xbcceb5ad	-0.025233114
87	0x3e9bd0b4	0.30432665
88	0xbe02ae71	-0.12761857
89	0x3d8e25ab	0.06940778
90	0xbc6c86fd	-0.014436481
91	0xbe8ffbbe	-0.28121752
92	0xbdee4bcc	-0.11635551
93	0xbca60426	-0.02026565
94	0x3d5e13d6	0.054218136
95	0xbdeb3784	-0.11485198
96	0xbe27883b	-0.16360562
97	0x3e31718b	0.1732847
98	0xbd2440b3	-0.040100764
99	0x3d43584e	0.047691636
100	0x3d92ce83	0.07168295
101	0x3ae87dd3	0.0017737694
102	0x3d7c320b	0.061571162
103	0x3e052d10	0.13005471
104	0x3e6c27a7	0.23062001
105	0x3e2e29e3	0.17008166
106	0xbe8333b8	-0.25625396
107	0x3e856450	0.26053095
108	0x3e8f6ec2	0.2801419
109	0xbdfe9435	-0.12430612
110	0xbe02d8c8	-0.12778008
111	0x3c4f15f6	0.012639513
112	0xbc317cf3	-0.010833013
113	0x3dd74d81	0.105128296
114	0xbdfd7ce9	-0.1237734
115	0x3e28e290	0.16492677
116	0xbddf42f4	-0.10901442
117	0x3e5303a4	0.20606858
118	0x3ebe31b6	0.371473
119	0x3d5ad84f	0.053428944
120	0xbc3f0cfa	-0.011660809
121	0xba930113	-0.001121553
122	0xbd49db14	-0.049281195
123	0xbe031bfe	-0.12803647
124	0xbe4a3fb3	-0.19750862
125	0x3cc24fab	0.02371963
126	0x3df134ce	0.1177765
127	0xbd3745fb	-0.044744473
128	0x3dd4461f	0.10364937
129	0xbeaab0e5	-0.33338085
130	0x3dff5902	0.12468149
131	0xbd97b04a	-0.07406671
132	0x3ec81a37	0.390825
133	0xbd6595ce	-0.056051068
134	0xbe05a143	-0.13049798
135	0xbd482a4c	-0.048868462
136	0xbdecf218	-0.11569613
137	0x3d1ca288	0.03824094
138	0xbe865c9c	-0.2624253
139	0xbce6875b	-0.028140714
140	0x3dd065a5	0.10175637
141	0xbe16aed3	-0.14715128
142	0xbe2d0bcc	-0.16899031
143	0xbd82c35d	-0.06384919
144	0x3e29e309	0.16590513
145	0xbd6100d5	-0.054932434
146	0x3d37742a	0.044788517
147	0xbdd0069b	-0.1015751
148	0x3e97cd5f	0.29648873
149	0xbdee31fe	-0.11630629
150	0x3e1f8baa	0.15580621
151	0xbde584b5	-0.112069525
152	0x3daed4fc	0.08536717
153	0xbd0fb73d	-0.03508686
154	0xbe647d93	-0.22313528
155	0x3e1d6d7a	0.15373793
156	0xbdb1ed8d	-0.08687887
157	0xbd0dc92f	-0.03461569
158	0x3e190cb7	0.14946257
159	0xbf00479b	-0.5010926
160	0xbe17429c	-0.14771503
161	0xbd2b3c84	-0.04180576
162	0xbc35151c	-0.011052396
163	0x3efeb34c	0.49746168
164	0x3e139bc4	0.14414889
165	0x3d8963f0	0.06708515
166	0xbddd9204	-0.10818866
167	0xbe4bc980	-0.19901085
168	0x3d26ce43	0.04072405
169	0x3e36b13f	0.17841052
170	0x3d43ea5f	0.047830936
171	0x3d28082f	0.04102343
172	0xbe360bdd	-0.17777963
173	0x3a921eb4	0.0011148066
174	0x3e0ae9b4	0.13565713
175	0xbe22fede	-0.15917537
176	0x3723cddc	9.7634875e-06
177	0xbe00c463	-0.12574916
178	0x3e264394	0.16236717
179	0x3e120452	0.1425946
180	0x3dde0deb	0.108424984
181	0x3db2266e	0.08698736
182	0xbdad57da	-0.08464022
183	0x3e335cf0	0.17515922
184	0x3e117f97	0.14208828
185	0xbd6a5f07	-0.05721953
186	0xbd9d0792	-0.076674595
187	0xbe0d3cbe	-0.13792703
188	0xbe053a3c	-0.13010496
189	0xbd89ca37	-0.067280225
190	0x3cb8812a	0.022522528
191	0x3de0ceb1	0.10976923
192	0x3d9dff86	0.07714753
193	0xbd498eca	-0.04920844
194	0xbd3947a9	-0.045234356
195	0xbd83dac5	-0.06438211
196	0xbd0fcc67	-0.035107043
197	0xbdc5db3f	-0.096609585
198	0xbcae5d91	-0.02128485
199	0x3d864928	0.06556922
200	0xbe2dc134	-0.16968232
201	0xbda5b00f	-0.08090221
202	0xbd279506	-0.040913604
203	0xbcc1bd95	-0.02364997
204	0xbcd1b0ef	-0.025597064
205	0xbdb09cf5	-0.08623687
206	0xbdd4f9a8	-0.10399181
207	0x3d36affe	0.044601433
208	0x3d9847ed	0.07435594
209	0xbd0e2e75	-0.034712274
210	0xbd7e396b	-0.062066477
211	0xbe4e9c63	-0.20176844
212	0xbe12b6a9	-0.14327492
213	0xbe317c4d	-0.17332573
214	0x3ca850a6	0.020546269
215	0xbd7e5bfe	-0.06209945
216	0xbc77d755	-0.015127023
217	0x3e8c369b	0.2738541
218	0x3cb8585d	0.022503072
219	0x3e15bb13	0.14622144
220	0xbdc5450a	-0.09632309
221	0xbe3cdbf0	-0.18443274
222	0x3e0c923a	0.13727656
223	0xbe09a621	-0.1344228
224	0xbd36ab72	-0.044597097
225	0x3db2ee8a	0.08736904
226	0xbda15885	-0.07878212
227	0xbe14ae48	-0.14519608
228	0xbe298de2	-0.1655803
229	0x3dbd21e7	0.09234982
230	0x3de0d245	0.10977606
231	0x3d760309	0.06006149
232	0x3b8df0ee	0.0043316996
233	0x3c39c672	0.011338817
234	0xb8b0dcb8	-8.433446e-05
235	0xbd087f3c	-0.033324465
236	0x3d03779d	0.032096494
237	0xbddcbfde	-0.10778783
238	0x3ee3d498	0.44498134
239	0x3e88e1f9	0.26734903
240	0xbe04ef12	-0.12981823
241	0x3cf19096	0.02948789
242	0x3dba47e8	0.09095746
243	0x3e54715f	0.20746373
244	0x3dc82753	0.097731255
245	0x3d4fdaaf	0.050745662
246	0x3e13f341	0.14448263
247	0xbe2da297	-0.16956554
248	0xbe37a0ba	-0.17932406
249	0xbd660980	-0.056161404
250	0xbe5d4fb4	-0.21612436
251	0xbd870af0	-0.06593883
252	0xbddcca3f	-0.10780763
253	0x3e52166f	0.2051637
254	0x3db7044c	0.089363664
255	0xbdd2c77d	-0.102919556

running_var f4 [256]
0	0x390e572e	0.00013574652
1	0x3892c25a	6.998023e-05
2	0x3c90ade1	0.017661037
3	0x387f5e9e	6.0884857e-05
4	0x38adee9f	8.2937295e-05
5	0x37851dc9	1.5868705e-05
6	0x3a0da017	0.00054025784
7	0x39127029	0.00013965428
8	0x376eb7cd	1.42287e-05
9	0x3aa61ba4	0.0012673032
10	0x3a035338	0.0005009654
11	0x38decd5c	0.00010624036
12	0x3a0174d0	0.0004938366
13	0x3ae20d70	0.0017246436
14	0x3aac529b	0.0013147177
15	0x396d85e3	0.00022651958
16	0x3b858d6b	0.004075696
17	0x3d3dd9fa	0.046350457
18	0x381485a0	3.5410398e-05
19	0x3a309e85	0.00067374884
20	0x385c409e	5.2512267e-05
21	0x3c1ae4eb	0.009453992
22	0x39835a38	0.00025053485
23	0x39889ed4	0.00026058278
24	0x39f2360f	0.00046198114
25	0x3ad6449e	0.0016347354
26	0x38662da7	5.487879e-05
27	0x38436813	4.658855e-05
28	0x390f0bdc	0.0001364196
29	0x39d9adb2	0.00041518878
30	0x39b87e44	0.0003518929
31	0x3c4ce9fb	0.012506957
32	0x3a22e380	0.000621371
33	0x37f38560	2.9029965e-05
34	0x360c73eb	2.0929099e-06
35	0x392fab39	0.00016753086
36	0x3ae09c13	0.0017136357
37	0x39fc58dd	0.00048131394
38	0x3913ceff	0.00014096125
39	0x37947cb5	1.7701046e-05
40	0x38006e79	3.0620464e-05
41	0x3932df88	0.00017058675
42	0x382f09aa	4.173225e-05
43	0x39995a27	0.00029249603
44	0x384a8062	4.828012e-05
45	0x398f2ac4	0.00027306948
46	0x3878bf8a	5.9306192e-05
47	0x38242383	3.913372e-05
48	0x377ba18c	1.4998379e-05
49	0x3c512aa8	0.012766518
50	0x3786f6cf	1.6088974e-05
51	0x3bcc780b	0.006239896
52	0x3d349b12	0.0440932
53	0x3855b5e5	5.095256e-05
54	0x38149bdc	3.5431105e-05
55	0x39104dad	0.00013761847
56	0x38524a3e	5.0137045e-05
57	0x3a0bcce7	0.0005332962
58	0x38457aab	4.7082704e-05
59	0x3806035e	3.1951226e-05
60	0x38c6164f	9.445531e-05
61	0x3c85ddee	0.016341176
62	0x39800938	0.0002442093
63	0x3a9c6f82	0.0011935087
64	0x3bdccacf	0.006738044
65	0x3818df7b	3.6447756e-05
66	0x3992c842	0.00027996494
67	0x3be36bfb	0.0069403625
68	0x39e19f1d	0.00043033893
69	0x3bc3f5b7	0.005980219
70	0x3c506a49	0.012720653
71	0x381d501d	3.750633e-05
72	0x3a482803	0.0007635357
73	0x382a3e62	4.0589257e-05
74	0x38909cb3	6.8956426e-05
75	0x3b7840e2	0.003788047
76	0x39940378	0.00028231344
77	0x3a39e811	0.00070917705
78	0x3bf9a437	0.007618453
79	0x387de18e	6.0529965e-05
80	0x376dfec5	1.4185619e-05
81	0x38b340ef	8.54748e-05
82	0x3a0b9784	0.0005325007
83	0x3b419a0e	0.0029541287
84	0x39df997d	0.00042648232
85	0x3a61b784	0.0008610415
86	0x3aaf714f	0.0013385209
87	0x3c8aa88e	0.016926076
88	0x3a4464cc	0.00074918265
89	0x377f8108	1.5229227e-05
90	0x3b2f398e	0.0026737186
91	0x3d4f4a99	0.05060825
92	0x3c069c82	0.008216025
93	0x3baa84f4	0.0052038375
94	0x39a8bc89	0.00032183927
95	0x38403367	4.582424e-05
96	0x3b3e1b01	0.0029007795
97	0x3c3a1095	0.0113564925
98	0x383c2e42	4.4865774e-05
99	0x37dbb92d	2.6193064e-05
100	0x39aeb28e	0.000333209
101	0x3a9a9da4	0.0011796248
102	0x386240b2	5.394285e-05
103	0x3adeac09	0.0016988526
104	0x3c42b6bf	0.01188439
105	0x395e7046	0.00021213395
106	0x3ce730ca	0.028221507
107	0x3c593154	0.01325639
108	0x3c5735a0	0.013135344
109	0x3845b62d	4.7138125e-05
110	0x37d03747	2.4821273e-05
111	0x37af44b2	2.0893614e-05
112	0x38c698fa	9.46987e-05
113	0x3a4cd393	0.00078135094
114	0x3805eec5	3.1932042e-05
115	0x38863411	6.399316e-05
116	0x39961024	0.00028622255
117	0x3a850ce7	0.001015094
118	0x3d30659d	0.043065656
119	0x39779680	0.00023611821
120	0x3c28f0b1	0.010311292
121	0x3776778f	1.46905795e-05
122	0x3a9a1fb6	0.0011758718
123	0x39d141c2	0.0003991258
124	0x387e3c85	6.0614682e-05
125	0x38abd40d	8.193413e-05
126	0x3b5b8c50	0.003350038
127	0x3803250e	3.1267344e-05
128	0x39637608	0.00021692377
129	0x3cc1869f	0.023623763
130	0x38cb9375	9.70726e-05
131	0x388f03d7	6.8194866e-05
132	0x3c89048f	0.016725807
133	0x3ba98d9e	0.005174353
134	0x381b24f6	3.6989302e-05
135	0x37e2e7d0	2.7049246e-05
136	0x38e8c355	0.000110990055
137	0x3a7812b3	0.00094632356
138	0x3c26c51c	0.0101788305
139	0x3bdfb25a	0.006826681
140	0x3a17f205	0.00057962566
141	0x38b3aa16	8.567066e-05
142	0x38a9133f	8.062133e-05
143	0x37a6d474	1.9887673e-05
144	0x3c09a490	0.008401051
145	0x3b48bada	0.003062895
146	0x396cf2b4	0.00022597128
147	0x37b87a54	2.1991473e-05
148	0x3c204e99	0.009784364
149	0x3928f238	0.00016111962
150	0x38c661fb	9.459626e-05
151	0x37c4697c	2.341414e-05
152	0x3baba9f1	0.0052387645
153	0x392132a0	0.00015373016
154	0x3b39d6ed	0.0028356866
155	0x39390d15	0.00017647848
156	0x3852de54	5.027496e-05
157	0x381c4802	3.726036e-05
158	0x38ee91e4	0.000113758986
159	0x3d330ccb	0.043713372
160	0x3c02fce6	0.007994866
161	0x390f6038	0.00013673387
162	0x37bef27b	2.2762679e-05
163	0x3d7432b0	0.059618652
164	0x38651614	5.4618416e-05
165	0x3a44fd59	0.00075145584
166	0x381eb971	3.784284e-05
167	0x3a04a2bf	0.00050596514
168	0x38662ed3	5.487988e-05
169	0x3a545345	0.00080995663
170	0x38f078eb	0.000114666145
171	0x39828af3	0.00024899057
172	0x3c8675eb	0.01641365
173	0x39109fdb	0.00013792461
174	0x37b96325	2.2099886e-05
175	0x3a416b17	0.00073783234
176	0x37ac564d	2.0544185e-05
177	0x3894f6e1	7.103175e-05
178	0x3760b14f	1.3392723e-05
179	0x37aaf4e9	2.0379624e-05
180	0x3b48c04d	0.0030632198
181	0x3b8d2632	0.0043075318
182	0x387cad8d	6.0243114e-05
183	0x3c76c70a	0.015062103
184	0x3d0102f0	0.031496942
185	0x3a267014	0.00063490984
186	0x394dba1b	0.00019619653
187	0x3b9320ba	0.0044899853
188	0x3991c67c	0.00027804438
189	0x382b3066	4.081465e-05
190	0x37e0e594	2.6809787e-05
191	0x39946171	0.0002830136
192	0x39a343f7	0.0003114042
193	0x388a480d	6.593773e-05
194	0x39dfac6a	0.00042662333
195	0x37fed0f4	3.0376461e-05
196	0x38b2a3f7	8.518242e-05
197	0x39165657	0.00014337279
198	0x393a74a4	0.00017781794
199	0x3a3d08af	0.0007211072
200	0x38248270	3.9222126e-05
201	0x3895204f	7.1108916e-05
202	0x38900bbc	6.868641e-05
203	0x3924d6a6	0.00015720222
204	0x39131b41	0.00014029165
205	0x3b9313d3	0.004488447
206	0x3afb790e	0.0019185857
207	0x38ebea0a	0.000112492664
208	0x39694c24	0.00022248976
209	0x3813e86a	3.5263984e-05
210	0x37c9f61f	2.4075676e-05
211	0x39b5eb93	0.00034698527
212	0x38e7bfdf	0.00011050677
213	0x3749c349	1.2026002e-05
214	0x3784421d	1.5766413e-05
215	0x383d5b28	4.5146007e-05
216	0x3878048b	5.913204e-05
217	0x3c730858	0.014833532
218	0x3ad95fa0	0.0016584285
219	0x3afb943e	0.001919396
220	0x3a55e874	0.00081599434
221	0x3a78dda0	0.0009493474
222	0x396f69a3	0.00022832169
223	0x38620bf6	5.389374e-05
224	0x393f5dac	0.00018250075
225	0x39433daf	0.00018619628
226	0x3af426d4	0.0018627294
227	0x3a88ec84	0.0010446464
228	0x3ad07649	0.0015904392
229	0x3abda22c	0.0014467887
230	0x3913ea18	0.00014106219
231	0x3a3a99af	0.00071182376
232	0x3b54828d	0.0032426447
233	0x37b3f34e	2.145176e-05
234	0x39fc3e11	0.0004811143
235	0x38a5418f	7.880024e-05
236	0x3b413781	0.0029482546
237	0x3ba55ab3	0.0050462126
238	0x3cc2487e	0.023716208
239	0x3bbdf67d	0.005797206
240	0x3bae9a0e	0.0053284233
241	0x3748f1e8	1.1977252e-05
242	0x3a857d17	0.0010184374
243	0x3a5f683a	0.0008522306
244	0x3ad16e7e	0.0015978364
245	0x394d849e	0.00019599727
246	0x394ba88f	0.00019422382
247	0x3933e9e4	0.00017157901
248	0x39c730ae	0.00037992507
249	0x37ac0568	2.0506515e-05
250	0x3a119e7f	0.0005554929
251	0x392b73c2	0.00016350954
252	0x3a50c6ef	0.0007964214
253	0x3c977d41	0.018492343
254	0x3bd55fdc	0.0065116715
255	0x37f77105	2.9497323e-05

weight f4 [128, 256]
0	0x3d21ac70	0.03947109
1	0xbd3bdceb	-0.04586498
2	0xbc58bef4	-0.0132291205
3	0xbc0b9ac4	-0.008520786
4	0x3c92a67c	0.017901652
5	0xbbacc0f6	-0.005272026
6	0x3cf209af	0.029545633
7	0x3cd9074e	0.026492741
8	0x3d38948a	0.045063533
9	0x3b20e4c9	0.002455043
10	0xbc013cf1	-0.007888065
11	0xbc3b4368	-0.011429645
12	0xbd3c95d6	-0.046041332
13	0xbbdd29d7	-0.0067493725
14	0x3d391b45	0.045192022
15	0x3d5c7926	0.053826474
16	0xbd21f5d0	-0.039541066
17	0x3cb3b337	0.021936042
18	0x3daec19f	0.08533024
19	0x3d42ca86	0.047556423
20	0xbcea6ed4	-0.0286173
21	0xbbce821e	-0.0063021323
22	0xbd29b8dc	-0.04143606
23	0xbcb8569e	-0.02250224
24	0xbccdc1e3	-0.025116866
25	0x3d936af0	0.07198131
26	0x3b212119	0.0024586378
27	0xbca1cb43	-0.019750243
28	0xbc3f480f	-0.011674895
29	0x3d669ae0	0.056300044
30	0xbbbb257e	-0.0057112565
31	0xbcf1ad4f	-0.029501585
32	0xbd63fbad	-0.05565994
33	0x3d3010f9	0.042984936
34	0x3d134332	0.035952754
35	0xbd0b520b	-0.03401379
36	0xbb3e6530	-0.0029052012
37	0xbb5191e3	-0.0031977824
38	0xbd7be596	-0.061498247
39	0x3ce7589c	0.028240494
40	0x3d088379	0.033328507
41	0x3d1b9319	0.03798208
42	0x3d4ba429	0.049717102
43	0xbd522cc4	-0.051312223
44	0x3d5e710d	0.054307032
45	0x3d844ebf	0.06460332
46	0xb8b2b803	-8.521976e-05
47	0x3de3eeab	0.11129507
48	0x3dab524b	0.083653055
49	0x3d8dfa2d	0.06932483
50	0xbc848835	-0.01617823
51	0x3d41a482	0.047276028
52	0x3c9de9ca	0.019276518
53	0x3d0711e0	0.03297603
54	0xbbb7d824	-0.005610483
55	0xbb4193c0	-0.0029537529
56	0xbd626b89	-0.055278335
57	0xbc9e61e0	-0.01933378
58	0x3d5ff5e3	0.054677855
59	0xbcd7b4e7	-0.026331378
60	0xbc5c33a9	-0.013440051
61	0x3c8995fa	0.016795147
62	0xbc3c82e6	-0.011505818
63	0xbc894622	-0.016757075
64	0xbc454aa3	-0.012041721
65	0x3cdf43cb	0.027254006
66	0x3be96c72	0.0071235234
67	0x3c8a8573	0.016909337
68	0xbd54efba	-0.051986434
69	0xbd46857b	-0.04846714
70	0xbd6f136f	-0.058368143
71	0xbc889364	-0.016671844
72	0xbbe273cc	-0.0069107767
73	0x3d575e03	0.05257989
74	0xbc6e3811	-0.014539734
75	0xbb7d96e6	-0.0038694679
76	0xbd4264d6	-0.047459446
77	0x3bebf242	0.0072005102
78	0xbc84461d	-0.016146714
79	0xbc095b89	-0.00838364
80	0xbd013422	-0.03154386
81	0xbc99c379	-0.018769966
82	0x3d12c0c6	0.035828374
83	0xbcd9744d	-0.026544714
84	0xbd64ebce	-0.055888943
85	0xbc00d219	-0.007862591
86	0x3d08edab	0.033429783
87	0x3ca9d99d	0.020733649
88	0x3cb8cfdc	0.022560053
89	0xbcf80100	-0.030273914
90	0xbc8a9e22	-0.016921107
91	0xbd63ad04	-0.055584922
92	0xbd0aea17	-0.03391465
93	0x3c99f553	0.018793738
94	0x3d930ca7	0.071801476
95	0x3d0cef15	0.034407694
96	0xbb82f95d	-0.0039970116
97	0x3cc627d1	0.024188908
98	0xbd6a1480	-0.057148457
99	0xbcbe3076	-0.023216467
100	0x3d9b9846	0.07597403
101	0xbc63a11b	-0.013893391
102	0xbd141bd0	-0.036159337
103	0x3d1e2c4e	0.03861647
104	0xbb83d367	-0.004023004
105	0x3ae316ac	0.0017325482
106	0x3bdd1162	0.006746457
107	0x3c95c59a	0.0182827
108	0xbd0427c0	-0.03226447
109	0x3c8ff525	0.017572949
110	0xba8225d0	-0.0009929482
111	0xbd299ac5	-0.041407365
112	0x3cd51e13	0.026015317
113	0xbd3bd637	-0.045858588
114	0xbccfaf4e	-0.025352146
115	0x3c05c543	0.008164707
116	0x3c9b071d	0.01892429
117	0xbd2559ed	-0.040368963
118	0x3bbc25ad	0.005741796
119	0xba3b7976	-0.0007151583
120	0xbd4b09ab	-0.049569767
121	0x3b9c033e	0.0047611287
122	0x3d74bbe0	0.059749484
123	0xbcd0ae4f	-0.025473742
124	0xbdbba6f2	-0.09162702
125	0xbd2f892e	-0.042855434
126	0xbd9a5ed8	-0.07537621
127	0xbd9a82ec	-0.075445026
128	0xbd85b6d9	-0.06529016
129	0xbd12c84c	-0.03583555
130	0xbdd1879b	-0.10230943
131	0x3c99bfae	0.018768158
132	0xbcd30a94	-0.02576188
133	0x3d50ab17	0.050944414
134	0x3c8fa4c3	0.01753462
135	0x3d8d91b9	0.0691256
136	0xbbb35413	-0.005472669
137	0xbc9b4fd0	-0.018958956
138	0x3d0d7c3c	0.034542307
139	0x3d309ba6	0.043117188
140	0x3c8a232d	0.016862476
141	0xbca941a6	-0.020661186
142	0xbcd8feb5	-0.026488641
143	0xbc5b0c32	-0.013369607
144	0xba2ebf5f	-0.000666609
145	0xbc495ee5	-0.012290691
146	0x3d6b422a	0.057436146
147	0x3d0a0d84	0.033704296
148	0xba0580c7	-0.00050927367
149	0x3d1bbf41	0.03802419
150	0x3d884b62	0.06655003
151	0xbc6e6753	-0.014551002
152	0xbce3b1d2	-0.027794752
153	0x3dd1e3b5	0.1024851
154	0xbcec8d4a	-0.028875966
155	0xbceea6c4	-0.029132254
156	0x3d85a2fc	0.065252274
157	0xbca07ef6	-0.01959179
158	0xbd2e4639	-0.04254744
159	0xbd0027f5	-0.031288106
160	0x3ccd1a5f	0.025036989
161	0x3cb88144	0.022522576
162	0x3d94dbd1	0.07268489
163	0x3d2d17b5	0.042258937
164	0x3cbc0e7c	0.022956125
165	0xbd4e0891	-0.05030114
166	0x3cc2ff90	0.023803502
167	0xbc631233	-0.0138593195
168	0xbbf1eb25	-0.0073827677
169	0xbd8ca27d	-0.0686693
170	0xbcafbdc5	-0.021452794
171	0xbd2cf496	-0.042225443
172	0x3d99c8fc	0.07509038
173	0xbdbc6ea5	-0.09200791
174	0xbd8f71e7	-0.07004147
175	0xbd2d87b9	-0.042365763
176	0x3c1c2424	0.009530101
177	0x3d4bd4e2	0.049763568
178	0x3d4697e3	0.048484694
179	0xb8d29f0f	-0.00010043207
180	0x3c803591	0.015650542
181	0xbd7d49c5	-0.06183793
182	0xbc7bf1d1	-0.015377478
183	0xbcfa863a	-0.030581582
184	0x3d8935b8	0.06699699
185	0xbcd62a33	-0.026143169
186	0xbd25242c	-0.0403177
187	0xbc3b9da3	-0.011451158
188	0x3d1702db	0.036867958
189	0xbd7dd8a0	-0.061974168
190	0x3cdd9a95	0.02705125
191	0xbc1c16e5	-0.009526943
192	0x3c9ac499	0.018892573
193	0xbdb4c149	-0.08825929
194	0x3d1cec47	0.03831127
195	0x3be3df7a	0.0069541307
196	0xbdcef73b	-0.10105749
197	0x3c9694a3	0.018381422
198	0xbc893459	-0.016748594
199	0x3ce735b6	0.028223854
200	0x3d028f89	0.031875167
201	0xbd4d8ca8	-0.05018297
202	0x3cad7719	0.021174954
203	0x3d0408f7	0.032235112
204	0x3d69c575	0.057073075
205	0x3c498bfa	0.012301439
206	0xbce750c6	-0.028236758
207	0x3de8f355	0.11374537
208	0x3d76ef9f	0.060287114
209	0xbd319cfe	-0.04336261
210	0xbd3cafc7	-0.04606607
211	0x3c96ac7d	0.018392796
212	0xbd6bc90d	-0.057564784
213	0xbb5c941c	-0.0033657616
214	0xbd394b2d	-0.04523771
215	0x3ae9022c	0.0017777137
216	0x3c2576b4	0.010099102
217	0x3d604394	0.054751948
218	0x3d3f59c3	0.046716463
219	0x3d46a9d1	0.048501793
220	0xbd11f048	-0.03562954
221	0xbcbaddab	-0.022810778
222	0xbc8e4abe	-0.017369624
223	0xbc02b062	-0.007976623
224	0xbd267164	-0.04063548
225	0xbc922050	-0.017837673
226	0xbca56336	-0.020188909
227	0x3d8da68c	0.06916532
228	0xbcfc760a	-0.030818004
229	0x3ad6bfaa	0.0016384025
230	0xbd756491	-0.05991036
231	0xbca30886	-0.019901525
232	0xbce3c91c	-0.027805857
233	0x3bd50b15	0.006501565
234	0x3d962ad7	0.0733239
235	0x3dee4950	0.11635077
236	0x3d42a5fd	0.04752158
237	0x3c94237c	0.018083327
238	0xbcbaa369	-0.022782998
239	0xbc29b0dd	-0.010357109
240	0x3d80b3b8	0.06284279
241	0x3cdca597	0.026934428
242	0xbd196088	-0.037445575
243	0xbcbd2b7e	-0.023092028
244	0x3ca7f659	0.02050321
245	0xbd39e3c1	-0.04538322
246	0x3d69fc96	0.05712565
247	0x3c20f649	0.009824344
248	0x3c4edaeb	0.012625436
249	0xbd2b81ff	-0.04187202
250	0xbcf75cd1	-0.030195625
251	0x3bd061be	0.006359308
252	0xbba6d5d2	-0.0050914073
253	0xbd6beeff	-0.05760097
254	0xbd7e3324	-0.06206049
255	0xbd1b4d75	-0.037915666
